models/svhn_unsup_all_conv_dcgan_100z_gaussian_lr_0.0005_64mb/200_discrim_params.jl_01.npy (npy, 19280 bytes, 1 tensors)

array f4 [64, 3, 5, 5]
0	0x3bfe33fa	0.007757661
1	0x3b845d29	0.004039426
2	0x3d8c39d3	0.068469666
3	0xbc9eb712	-0.019374404
4	0xbd0c481f	-0.034248468
5	0xbd0223b9	-0.03177235
6	0x3b7505b3	0.003738743
7	0x3df3c6c9	0.1190315
8	0xbd3f36bb	-0.046683054
9	0xbda49c50	-0.08037627
10	0xbd937ed0	-0.07201922
11	0x3d34e1a9	0.04416052
12	0x3dbc76e3	0.09202363
13	0xb9ad9d08	-0.0003311413
14	0xbd414864	-0.047188178
15	0xbd82e4bb	-0.06391283
16	0x3b1a5fcd	0.0023555637
17	0x3d6c718f	0.057725485
18	0x3b876de0	0.004132971
19	0xbc8dcba4	-0.017309017
20	0x3cf84e92	0.030310903
21	0xbc76a00b	-0.015052806
22	0x3c60fd5a	0.013732279
23	0xbc5123b3	-0.012764859
24	0xbbbbf703	-0.005736233
25	0xbcb0e8db	-0.02159541
26	0x3c963783	0.018337017
27	0x3dc3da8b	0.09563168
28	0xbcae310f	-0.021263627
29	0xbda1ec28	-0.07906371
30	0xbd8917e7	-0.06694012
31	0x3bb3d9ac	0.005488595
32	0x3e11dcc7	0.14244376
33	0xbc15a9d4	-0.009134728
34	0xbdb80b9c	-0.08986589
35	0xbdbb2ea9	-0.09139759
36	0x3d124c60	0.035717368
37	0x3e11086c	0.14163369
38	0x3d46581e	0.04842388
39	0xbdbc52fb	-0.09195515
40	0xbd6cf806	-0.05785372
41	0xbd08209d	-0.033234227
42	0x3ddb7ab6	0.10716765
43	0x3c242f44	0.010021035
44	0xbaff3c3a	-0.0019472905
45	0xbb980f6c	-0.0046405103
46	0xbd7e4815	-0.06208046
47	0x3c6b5ce8	0.014365412
48	0x3c9cb88a	0.019130964
49	0x3c44dc72	0.012015449
50	0x3cd103c4	0.02551449
51	0xbd671b7e	-0.056422703
52	0x3d38d8eb	0.045128744
53	0xbca2e89a	-0.019886304
54	0xbc69b9c4	-0.014265481
55	0xbc6cd16b	-0.014454226
56	0xbb139d9c	-0.0022524362
57	0x3df2aa4b	0.11848887
58	0xbc8ddee0	-0.01731819
59	0xbd7b1c87	-0.061306503
60	0xbd867dff	-0.065670006
61	0xbcdf8ec7	-0.027289761
62	0x3dc99dad	0.098445274
63	0x3cc3f24c	0.023919247
64	0xbd469ce3	-0.048489463
65	0xbd47caa5	-0.04877724
66	0xbc20c344	-0.00981218
67	0x3d7e3dfb	0.062070828
68	0x3c1ab4ec	0.009442549
69	0x3ca1f4a5	0.019769976
70	0xba958298	-0.0011406718
71	0xbc4cb10f	-0.012493386
72	0xb925e74f	-0.00015821795
73	0xbd1ef36e	-0.03880637
74	0x3cbe472d	0.023227299
75	0xbd0cbe97	-0.03436145
76	0x3c144293	0.009049076
77	0xbc6f1a69	-0.014593699
78	0xbcb18741	-0.02167094
79	0xbc6e7d54	-0.014556248
80	0x3d4a1b7b	0.049342614
81	0x3e4c849c	0.19972461
82	0x3d42023e	0.04736542
83	0xbcb51f44	-0.022109635
84	0xbc79f49b	-0.015256072
85	0xbca7d5f1	-0.020487757
86	0x3d614ec4	0.055006757
87	0x3d7b4bda	0.061351635
88	0x3caf1eec	0.02137705
89	0xbc6a0446	-0.014283245
90	0xbdb92d5c	-0.09041855
91	0xbd94d471	-0.072670825
92	0xbd505ee4	-0.050871745
93	0xbcc58882	-0.024112944
94	0xbd91de26	-0.071224496
95	0x3d26a92d	0.040688682
96	0x3aa51c3b	0.0012596914
97	0x3d4e8141	0.050416235
98	0x3bc78148	0.0060884096
99	0x3bec3a6f	0.0072091143
100	0xbd901287	-0.07034784
101	0xbda281ae	-0.07934891
102	0x3ab956ba	0.0014140226
103	0xbc61d51d	-0.01378372
104	0x3c9f0fbf	0.019416688
105	0x3d94457d	0.07239816
106	0x3d4e85b0	0.050420463
107	0x3d7e8a87	0.06214383
108	0xbdd6066a	-0.10450442
109	0x3d0e42ea	0.034731783
110	0xbd528f20	-0.051406026
111	0xbd3ae1e4	-0.045625582
112	0x3c59814d	0.013275457
113	0x3d10c343	0.035342466
114	0x3d7959c1	0.06087661
115	0xbd2b1cdc	-0.04177557
116	0xbe414478	-0.18873775
117	0x3bd0a68f	0.0063675116
118	0xbc4c877b	-0.012483473
119	0xbbb2cc5b	-0.00545649
120	0x3d553782	0.05205489
121	0xbd6a0fbc	-0.05714391
122	0xbc9cfe22	-0.019164149
123	0x3ca7534a	0.020425458
124	0x3d767a6d	0.060175348
125	0xbb052222	-0.0020314534
126	0xbdb28379	-0.08716483
127	0xbd0250d4	-0.031815365
128	0xbc84f622	-0.016230647
129	0x3d637036	0.055526935
130	0x3d254acc	0.040354535
131	0x3c76cb68	0.015063144
132	0x3c96852e	0.018374052
133	0xbd612611	-0.054967944
134	0xbc02ff05	-0.007995372
135	0x3c9d4388	0.01919724
136	0xba08b2a2	-0.00052146066
137	0x3c46940c	0.012120258
138	0x3c77f068	0.015133001
139	0x3babe39d	0.0052456395
140	0xbd26a409	-0.04068378
141	0xbd696ae1	-0.056986693
142	0x3c85fc4e	0.01635566
143	0xbcf3e56c	-0.029772483
144	0xbc8944c7	-0.016756428
145	0x3dd3916d	0.10330472
146	0x3d31fd4d	0.043454457
147	0x3d19eb33	0.03757782
148	0xbc0fe962	-0.00878367
149	0x3cd5da9b	0.026105216
150	0x3bba14c5	0.0056787455
151	0x3d58124f	0.052751835
152	0x3e033da3	0.12816481
153	0xbd4ffdd0	-0.050779164
154	0xbd91516b	-0.07095607
155	0xbcd168a1	-0.025562586
156	0x3b1f5b7f	0.002431601
157	0xbce933d0	-0.028467089
158	0xbc83cff7	-0.016090376
159	0x3c85d1fd	0.016335482
160	0xbd521799	-0.051292036
161	0xbd9582b2	-0.07300319
162	0xbdcf9208	-0.10135275
163	0x3da3b3f7	0.0799331
164	0x3e123d72	0.14281252
165	0xbd040dfd	-0.032239903
166	0xbbaf3d15	-0.0053478577
167	0xbd2451d4	-0.0401171
168	0x3d356a16	0.044290625
169	0xbceebfca	-0.029144187
170	0x3d602b62	0.054728873
171	0x3d4e3859	0.050346706
172	0x3cec3be8	0.02883716
173	0xbbac3f5f	-0.005256578
174	0xbdb96f14	-0.090543896
175	0x3ccde169	0.025131898
176	0x3dddbec4	0.10827401
177	0x3dabf13f	0.083956234
178	0xbdd41870	-0.103562236
179	0xbdc70fa5	-0.09719781
180	0x3cc44dcd	0.02396288
181	0x3cb32534	0.021868326
182	0xbd4a18fe	-0.04934024
183	0xbd29a7e7	-0.04141989
184	0xbd03aa25	-0.032144684
185	0xbcb972be	-0.022637721
186	0xbdc7e9aa	-0.09761365
187	0xbdb642cc	-0.08899459
188	0x3d9b98eb	0.07597526
189	0x3e10829a	0.1411232
190	0x3c877266	0.016534042
191	0x3c8222bc	0.015885703
192	0xbc505964	-0.012716625
193	0x3cca05ed	0.024661029
194	0x3b801bf8	0.003909584
195	0x3d507932	0.05089683
196	0x3da4d463	0.08048322
197	0x3cecf933	0.028927421
198	0xbd6e1d44	-0.05813338
199	0xbd2c8174	-0.042115644
200	0xbced946f	-0.029001443
201	0x3c83f82d	0.01610955
202	0x3df49048	0.11941582
203	0xbd1aeb9f	-0.037822362
204	0xbde630ba	-0.112397626
205	0x3cc4263b	0.023944011
206	0xbcd28392	-0.025697503
207	0xbb8fe446	-0.004391226
208	0x3c303fb6	0.010757377
209	0x3cf148fd	0.029453749
210	0xbcb6748a	-0.022272367
211	0xbde5b367	-0.11215859
212	0xbdcef211	-0.10104764
213	0x3ddf9722	0.10917498
214	0x3e171382	0.14753535
215	0xbd084619	-0.033269975
216	0xbc8a545b	-0.016885927
217	0xbc3c9fad	-0.011512679
218	0x3cf001df	0.029297767
219	0x3cc67735	0.024226764
220	0x3ce45fde	0.027877744
221	0x3d0ee58d	0.034886885
222	0x3c274212	0.0102086235
223	0xbb81c023	-0.003959672
224	0xbe002dbb	-0.12517445
225	0xbcb939de	-0.022610601
226	0xbb0b3aa9	-0.002124468
227	0x3b8174aa	0.003950675
228	0xbbcf4753	-0.006325641
229	0x3c860f04	0.016364582
230	0x3d1752f4	0.036944345
231	0x3dbb2f65	0.09139899
232	0xbd6adf82	-0.05734206
233	0xbd3ebdbe	-0.04656767
234	0x3c2eb96e	0.010664327
235	0x3dc201f4	0.09473029
236	0x3dd35ff7	0.10321038
237	0xbda494d8	-0.08036202
238	0xbddd106b	-0.10794147
239	0xbcf2c30d	-0.029634023
240	0x3d29d53a	0.041463114
241	0x3d04b445	0.03239848
242	0xbd820dc7	-0.06350284
243	0xbd1497d6	-0.036277615
244	0x39badfde	0.0003564348
245	0xbd17b1a6	-0.037034653
246	0x3bc07b58	0.0058740787
247	0x3bc8136c	0.006105831
248	0x3cf377d0	0.029720217
249	0x3c79f78e	0.015256776
250	0xbccd16f9	-0.025035368
251	0x3c6b9641	0.014379085
252	0x3ad7cbce	0.0016463937
253	0xbbbf336b	-0.005834987
254	0x3cbb26bc	0.022845618
255	0x3da60bde	0.08107732
