models/svhn_unsup_all_conv_dcgan_100z_gaussian_lr_0.0005_64mb/200_discrim_params.jl_07.npy (npy, 1104 bytes, 1 tensors)

array f4 [256]
00000000: cfce 653d 98f1 44bd 5ed6 35bc d713 32be
00000010: ac0b 75be c340 7bbe 94e5 25be ee0b 62be
00000020: 6eae 57be 2c35 44be 8392 ea3c 5846 41be
00000030: 6b22 1abe 0fbf 883c 068f 0bbe 7ec3 043d
00000040: dea6 2dbe b978 073d 9280 6abe 52e1 80be
00000050: 957a 91bd 5709 003d a02f c43c f685 70be
00000060: d08b 1cbe 4417 98bd b0bc fd3c d9f6 41be
00000070: 7405 e53c a177 ca3c 2324 41be 26d1 19be
00000080: 2185 14be 0ddd f53c d2fe 66be c778 4b3c
00000090: 3ca9 8ebe 4606 c6bd ffa1 a2be d7ac 75bc
000000a0: 0c5c 8ebd 548c 0dbd 451e fd3c c887 cbbd
000000b0: e8fd 8fbe 8142 9f3d 8984 2ebe 4fe9 18be
000000c0: 7426 08be 5d08 9d3d 2ba4 f43c 4d37 fabd
000000d0: 5eaf ec3c 89f8 863b e35a f3bc d362 43be
000000e0: 5c74 783d 7852 233b 2d1f 8b3c a38c 3abe
000000f0: 0645 84be c69c 32be 88f0 50be 5fa0 3a3d
00000100: 0d69 16be 2042 91be 427c a83c a934 71be
00000110: fae2 5bbe afd9 10be 9aa5 8fbe bfac f93b
00000120: fc31 35be 8225 debd 06d0 b23b f607 09be
00000130: d717 c63c bac4 b0be d34b e1bc 930e 61be
00000140: 8b7d d5b9 cda5 1ebe f46a 09be 79b5 b7bd
00000150: 8422 1bbe 880f 85bd 7cd5 31be cf89 5e3c
00000160: 2b7e 483d e925 803c 8efb 41be d2ea 58be
00000170: 197d b63a 653a 33be e3b5 0bbe a7a9 adbe
00000180: 6b33 e6bd 52aa 263d a93b 68be c722 4ebd
00000190: 35b1 4a3a 9b17 46be a7a8 17be e4c0 15be
000001a0: 9a80 2ebe dc41 38be a9c2 10be d7a0 933c
000001b0: 7d19 2dbe a344 49be 9651 903c 401c 4cbe
000001c0: 7406 25be 0948 45be 5b5c 78be a945 e0ba
000001d0: 0475 4cbe 4819 39be c88c 66be 62a3 1abe
000001e0: b2ac 2ebe a2ef d0be 6171 3b3d d941 36be
000001f0: 0c3d 2539 906e dbbd dcb7 0bbe 624a 293d
00000200: 1bc6 45be c5ee 30be 8308 e33c efcb b23d
00000210: af45 2bbe 2682 29be 21e0 20be d399 1abe
00000220: 6ebd 26be a9be fd3b adfc 08be 6a94 21be
00000230: a525 44be 2dfb 5bbe e05f a8bc af91 20be
00000240: 5bea cbbd 4220 12be dfd0 2cbd bdbb 2ebd
00000250: 3b16 44be 3a51 2a3c cbc8 ffbd 3ae4 1abe
00000260: 8a48 6cbd a8a3 da3c 7b6f efbd 211b 21bc
00000270: 638b e9bd a25b 3ebe 07c4 e8bd f4a9 30be
00000280: 8c70 69be f712 bcbd 1bef 4fbe 23c7 edbd
00000290: 797f 06bd 3c79 3dbe c675 32bc de02 7fbd
000002a0: c102 cabe ba2c 32be bc60 523d 1f0c 3fbc
000002b0: 1953 703d 8c3d 20be c235 1ebe ab00 66be
000002c0: 6de6 06be 3625 a53c b1d9 59bc c491 21be
000002d0: 4d5c 46be 2b58 9bbc 415a 0ebe c3b5 1ebe
000002e0: 4bfe 90bb 40c5 bfbc 47bf 0c3d 7f1f ddbd
000002f0: 479d 56be 7c90 9d3c 74e1 0abc 1adc 47be
00000300: a6cf 82bd 81f9 0bbe c8d0 55be 3836 c6be
00000310: 3dae 83be 93d3 163d 3c89 adb9 55fc d23c
00000320: 9d87 4dbe 6539 5dba 3728 373d d4e2 88be
00000330: 506c 3dbe 823a 29be 9246 18be 5fe8 48be
00000340: 5d82 813d a2fe 5cbe 55d4 91bd ce85 38bd
00000350: 42c6 07be 4560 07bd 84d2 80bd 8d0d c0bd
00000360: 9acd febd ab1d 3dbe 208b 733d 75c2 acbd
00000370: 0d0e 66be 3f9c 0dbe 41a8 4fbd 773e a03b
00000380: d07d c6bd d1d9 0ebe c32e c7bd 851c a5be
00000390: 4011 6abe d568 75be 1366 67be fe1b e3bd
000003a0: 6146 64be c8a5 e4bd 083b bebd f81e 1abe
000003b0: 83a6 07be 76eb 86be aa10 4b3d 8ee5 3abe
000003c0: 1756 71be a626 3bbe cd4c 0bbd 9927 ffbb
000003d0: 9b06 14be caf4 aabd 799e 063d 1acb 0a3e
000003e0: ea52 42be 357e 0dbd 5dca 53be 59ea 00be
000003f0: cbfd 00be fcd8 a4b9 9238 23be e291 3cbe
0.05610543 -0.048081964 -0.011098472 -0.17390381 -0.23930234 -0.24536423 -0.16200858 -0.22074863
-0.21062633 -0.19160908 0.028634315 -0.1887449 -0.15052192 0.016692666 -0.13628778 0.032413
-0.16958186 0.033074114 -0.22900608 -0.25171906 -0.07103459 0.031258907 0.02394849 -0.23488602
-0.15287709 -0.074263126 0.030973762 -0.18941821 0.027956702 0.024715247 -0.18861441 -0.1502119
-0.1450391 0.030012632 -0.22558144 0.012418932 -0.2786349 -0.09669165 -0.31764218 -0.0149948215
-0.0695115 -0.034557655 0.030898223 -0.099380076 -0.28123403 0.077763565 -0.17042746 -0.1493275
-0.13295919 0.07667611 0.029863438 -0.12217579 0.028892215 0.004118983 -0.029706424 -0.19080667
0.060657844 0.0024920981 0.01698264 -0.18217711 -0.2583391 -0.17442617 -0.20404255 0.045563098
-0.14688511 -0.28370762 0.020567063 -0.23555245 -0.21473303 -0.1414554 -0.2805603 0.00761947
-0.17694849 -0.10846998 0.005456927 -0.13381943 0.02418129 -0.3452509 -0.027501976 -0.21978216
-0.00040720063 -0.15492935 -0.13419706 -0.0897016 -0.15149885 -0.06497103 -0.17366594 0.013582661
0.04894845 0.015643077 -0.18943617 -0.21183327 0.001392278 -0.17502744 -0.13643603 -0.33918497
-0.11240276 0.040689774 -0.22679009 -0.050326135 0.00077320944 -0.19344942 -0.1481043 -0.14624363
-0.17041245 -0.17993873 -0.14136757 0.01802103 -0.16904254 -0.19655089 0.017617028 -0.19932652
-0.16115743 -0.1926576 -0.24253981 -0.0017110604 -0.19966513 -0.1807605 -0.22514641 -0.15101388
-0.17058066 -0.40807825 0.045762423 -0.17798556 0.00015758368 -0.107144475 -0.13644356 0.041330703
-0.19313852 -0.17278583 0.02771402 0.087303035 -0.16725801 -0.16553554 -0.15710498 -0.15097742
-0.16283199 0.0077436757 -0.13377638 -0.15779272 -0.19154985 -0.21482535 -0.02055353 -0.15680574
-0.09956809 -0.14270118 -0.042191382 -0.04265951 -0.19149105 0.0103953425 -0.1248947 -0.15126124
-0.057686366 0.026689366 -0.11691185 -0.009833128 -0.11403539 -0.18589643 -0.11365514 -0.17252332
-0.2279684 -0.09183305 -0.20306055 -0.11610248 -0.03283641 -0.18503278 -0.010892337 -0.062258594
-0.39455226 -0.17399874 0.051361784 -0.011660605 0.058672998 -0.15648478 -0.15450194 -0.22461192
-0.13173838 0.020159345 -0.013296531 -0.15778261 -0.19371147 -0.01896294 -0.13901617 -0.15499024
-0.0044248453 -0.023409486 0.034362104 -0.10797023 -0.20958434 0.019233935 -0.008476604 -0.19517556
-0.06387262 -0.13669397 -0.20880425 -0.3871324 -0.2571887 0.036822867 -0.0003309938 0.025755087
-0.20071264 -0.00084390334 0.044716086 -0.26735556 -0.18498349 -0.16526225 -0.1487067 -0.19619893
0.06323693 -0.2158151 -0.07120577 -0.04504948 -0.13259223 -0.033050794 -0.06290153 -0.093775846
-0.12441559 -0.18468349 0.05945885 -0.08435527 -0.22466297 -0.13829134 -0.05069757 0.004890259
-0.096919656 -0.13950278 -0.09725716 -0.3224832 -0.22858143 -0.23965771 -0.22597532 -0.110893235
-0.22292472 -0.11164433 -0.09288603 -0.15050876 -0.13247113 -0.26351517 0.04957644 -0.1825163
-0.23567997 -0.18276462 -0.03400879 -0.007786703 -0.14455645 -0.08347471 0.032865975 0.1355404
-0.18976942 -0.03454419 -0.20682664 -0.12589397 -0.12596814 -0.00031442184 -0.15939549 -0.18415025
