models/svhn_unsup_all_conv_dcgan_100z_gaussian_lr_0.0005_64mb/200_discrim_params.jl_02.npy (npy, 819280 bytes, 1 tensors)

array f4 [128, 64, 5, 5]
0	0xbd4fab17	-0.050700273
1	0xbdce0836	-0.1006016
2	0xbcddca4d	-0.027074004
3	0xbd16bbbe	-0.03680014
4	0x3ca54611	0.020175012
5	0x3d5e026c	0.05420153
6	0xbdf89de3	-0.121394895
7	0x3ddacef3	0.10684004
8	0xbd0e15b8	-0.03468868
9	0x3d855d27	0.06511908
10	0x3de3b126	0.11117773
11	0xbdc2632f	-0.09491574
12	0x3dc954da	0.09830637
13	0xbdcaba57	-0.09898823
14	0x3ddfbf40	0.1092515
15	0x3de8e5f9	0.11371989
16	0xbd8b2b7d	-0.06795404
17	0x3da063c0	0.07831526
18	0xbd2a78de	-0.041619174
19	0x3d43783a	0.04772208
20	0x3d97473c	0.07386634
21	0xbc94f8da	-0.018185068
22	0xbbadfedc	-0.0053099226
23	0xbd60f39e	-0.05491983
24	0x3d23587b	0.039879303
25	0x3ccfdd73	0.02537415
26	0xbc817fc6	-0.015807997
27	0x3ce3d05e	0.027809318
28	0xbcf625d6	-0.030047338
29	0x3d281d48	0.04104355
30	0xbc5b1a03	-0.013372901
31	0x3c37e68a	0.011224398
32	0x3da7d4a6	0.08194856
33	0x3d48226f	0.048860963
34	0xbd89e3d2	-0.067329064
35	0xbd1afb91	-0.03783757
36	0xbd47db5b	-0.048793178
37	0xbc85901c	-0.016304068
38	0x3c082b42	0.008311095
39	0xbd13fc77	-0.03612944
40	0x3d5a22d2	0.053255863
41	0xbc4615b2	-0.0120901335
42	0xbd6bb2ae	-0.05754345
43	0x3cbf74cd	0.023371125
44	0x3cd66cce	0.026174929
45	0x3d272cf8	0.04081437
46	0xbd4bd5fa	-0.04976461
47	0xbdc17242	-0.09445621
48	0xbbbd0172	-0.0057679946
49	0xbdb2ad26	-0.08724432
50	0xbe0a1d80	-0.13487816
51	0x3e130422	0.14357045
52	0xbe0caa46	-0.13736829
53	0x3ce68b62	0.028142635
54	0xbbf3e5da	-0.007443172
55	0xbd9870c6	-0.07443385
56	0x3b6411db	0.0034800682
57	0x3da102e5	0.0786188
58	0xbd55f558	-0.05223593
59	0xbd165b55	-0.036708195
60	0x3c40e217	0.011772654
61	0x3d9391a6	0.072055146
62	0xbd2d4fcb	-0.042312425
63	0x3dcec87a	0.100968316
64	0x3bec6ab1	0.007214867
65	0xbdc23dd9	-0.09484453
66	0x3d3f8252	0.046755143
67	0x3c3b07df	0.011415451
68	0x3d468797	0.048469152
69	0x3d8258a1	0.06364561
70	0xbd5566f7	-0.052100148
71	0xbd3f3ab2	-0.046686836
72	0xbca1182b	-0.019664844
73	0xbc404393	-0.011734861
74	0x3cf8929b	0.030343344
75	0xbd764d2a	-0.060132183
76	0xbd8720fc	-0.06598088
77	0xbd20af4f	-0.039229687
78	0x3c10bbfe	0.008833883
79	0xbdb770a5	-0.08957032
80	0xbdd04728	-0.10169822
81	0xbcce5131	-0.0251852
82	0xbd922935	-0.07136766
83	0x3d8320a6	0.064027116
84	0xbd4b2712	-0.049597807
85	0xbe2c28cb	-0.16812436
86	0x3b370fae	0.002793293
87	0xbdc7ea98	-0.09761542
88	0x3d21c830	0.039497554
89	0xbd8bfb99	-0.06835098
90	0xbddfde29	-0.109310456
91	0x3bce2fd9	0.006292325
92	0xbdf757e1	-0.120773084
93	0xbbf0235b	-0.0073284335
94	0xbd881428	-0.066444695
95	0xbcc790d8	-0.02436106
96	0x3d616075	0.05502363
97	0xbd81367c	-0.0630922
98	0xbc5e86ab	-0.013581912
99	0x39bff175	0.00036610258
100	0x3cfdcf07	0.030982507
101	0xbd8024f4	-0.06257048
102	0xbbbccead	-0.0057619424
103	0x3cefd90c	0.0292783
104	0xbc6c200c	-0.014411937
105	0x39195aa8	0.00014624989
106	0xbd4dec56	-0.050274216
107	0x3c1a3fab	0.009414594
108	0x3dd0a55d	0.101877905
109	0xbc40f14a	-0.011776278
110	0xbb956692	-0.0045593465
111	0xbdde1d6e	-0.10845457
112	0xbc5f63cf	-0.013634636
113	0x3d228db4	0.03968592
114	0xbc40ab8c	-0.01175965
115	0xbdb734d8	-0.08945626
116	0xbe269007	-0.1626588
117	0xbdc831c0	-0.09775114
118	0xbd8c3916	-0.06846826
119	0xbda7bdca	-0.08190496
120	0xbcb287c8	-0.021793261
121	0xbdde3604	-0.108501464
122	0xbc56015e	-0.013061849
123	0x3c9247cd	0.017856503
124	0x3b88935f	0.0041679586
125	0xbd3cd2b3	-0.046099376
126	0xbd4009bc	-0.046884283
127	0xbcaefa50	-0.021359593
128	0xbd135692	-0.03597123
129	0xbd75917b	-0.059953194
130	0xbcca6d7b	-0.024710407
131	0xbbfea610	-0.007771261
132	0x3d1ac956	0.037789665
133	0xbb3a7739	-0.002845241
134	0xbcae0a42	-0.021245126
135	0xbccd8eb8	-0.025092468
136	0xbd25828f	-0.040407714
137	0xbd95adf5	-0.0730857
138	0xbb0fbc1f	-0.0021932197
139	0xbcd08566	-0.025454234
140	0xbd90abbb	-0.07064005
141	0xbdcd0971	-0.100115664
142	0xbd0f7c60	-0.035030723
143	0xbc5342ff	-0.012894391
144	0xbcdbcbc6	-0.026830565
145	0xbddf3f6c	-0.10900769
146	0xbcc8bade	-0.024503168
147	0xbdb63014	-0.08895889
148	0xbc50976c	-0.012731414
149	0x3ba23432	0.00495007
150	0xbdd4dec8	-0.10394055
151	0xbdb7511a	-0.08951016
152	0x3da7c9a5	0.081927575
153	0x3c2bc2ad	0.010483426
154	0x3d127d80	0.035764217
155	0x3dcfa948	0.1013971
156	0x3cc13a44	0.023587354
157	0x3d5d8406	0.054080985
158	0x39d01378	0.00039687357
159	0x3cb141b6	0.021637779
160	0x3e127f72	0.14306429
161	0xbd6f67b3	-0.058448505
162	0x3d06a5eb	0.032873075
163	0xbd481114	-0.048844412
164	0x3c28553c	0.010274228
165	0x3c9c87ed	0.019107783
166	0x3d29ce31	0.041456405
167	0x3c87322d	0.016503418
168	0xbb2643ce	-0.0025370005
169	0xbcb1132f	-0.021615593
170	0x3d4eb745	0.05046775
171	0x3daedb85	0.08537964
172	0x3d11abc6	0.035564207
173	0xbda9349d	-0.08261988
174	0xbdbe9e70	-0.09307563
175	0x3d2a7ccb	0.041622918
176	0x3d38d227	0.045122292
177	0xbd9f1b1d	-0.07768843
178	0x3cb188ae	0.02167162
179	0xbca73c35	-0.020414451
180	0x3d0fc687	0.03510144
181	0xbcbaf100	-0.022819996
182	0x3cc0619b	0.023484042
183	0xbdd009ef	-0.10158145
184	0xbdfc13df	-0.123084776
185	0xbc94a6fe	-0.018146034
186	0x3d8576f5	0.0651683
187	0xbd893328	-0.066992104
188	0x3d086be0	0.033306003
189	0xbcb30608	-0.021853462
190	0x3c9a6f2f	0.018851845
191	0x3dbf8598	0.09351653
192	0x3b46847f	0.0030291376
193	0x3e080659	0.13283671
194	0x3d3ab902	0.045586593
195	0xbd13ae6b	-0.03605501
196	0x3dbb9d1b	0.09160825
197	0xbdd65566	-0.10465507
198	0xbd50e60b	-0.051000636
199	0x390528ff	0.0001269914
200	0x3d43a5da	0.04776559
201	0x3d5932ac	0.05302684
202	0xbd20079e	-0.039069764
203	0x3b2ca4b5	0.002634329
204	0x3d8216c6	0.06352
205	0x3d6e7d6b	0.058225077
206	0x3c3cce61	0.011523814
207	0x3da0f1b2	0.078586
208	0xbd9f47ec	-0.0777739
209	0x3d7ea239	0.062166426
210	0x3caf969b	0.021434119
211	0xbd3d1816	-0.04616555
212	0x3c8f392c	0.017483316
213	0xbce62452	-0.02809349
214	0xbc457a42	-0.012053074
215	0xbd87fbc0	-0.066398144
216	0xbd49350b	-0.04912285
217	0xbc5d351c	-0.013501432
218	0xbc982a7f	-0.018574951
219	0x3c3a911f	0.011387139
220	0xbc82440f	-0.015901593
221	0xbcad6a11	-0.02116874
222	0xbd43379b	-0.04766045
223	0xbc126989	-0.008936294
224	0x3c880770	0.016605109
225	0xbcea41f6	-0.028595906
226	0xbd9b134a	-0.075720385
227	0x3d06ff65	0.032958407
228	0xbda6c1fa	-0.08142467
229	0xbc172017	-0.009223959
230	0xbd7a4f4a	-0.061110772
231	0x3cdc51f1	0.026894541
232	0xbd6c7a1b	-0.057733636
233	0x3c99e4dd	0.018785888
234	0xbd105837	-0.03524038
235	0x3c29e00d	0.010368359
236	0x3cd2f20e	0.025750186
237	0xbd2630be	-0.040573828
238	0x3c28333f	0.010266124
239	0xbd0605a8	-0.032720238
240	0xbd5b1671	-0.0534882
241	0x3c187bcc	0.009306859
242	0xbdda64ad	-0.10663734
243	0xbd84857a	-0.06470771
244	0xbd542a99	-0.051798437
245	0xbc91c71d	-0.01779514
246	0x3cf40eec	0.029792272
247	0xbd9488c2	-0.07252647
248	0x3c8bfae1	0.017087402
249	0x3d5e4926	0.05426898
250	0xbb8fffd6	-0.0043945117
251	0xbd43a407	-0.04776385
252	0xbd43ddde	-0.04781901
253	0x3b569dfa	0.003274797
254	0xbd12e819	-0.035865877
255	0x3b354d6e	0.002766456
