models/svhn_unsup_all_conv_dcgan_100z_gaussian_lr_0.0005_64mb/200_gen_params.jl_10.npy (npy, 19280 bytes, 1 tensors)

array f4 [64, 3, 5, 5]
0	0x3c828957	0.01593463
1	0x3d2dee98	0.04246387
2	0x3d1f5185	0.038896102
3	0x3cf49130	0.029854387
4	0x3c6e01ea	0.014526824
5	0x3d5f83ff	0.05456924
6	0x3dd22859	0.10261602
7	0x3dad8671	0.08472908
8	0x3d4c8e31	0.04994029
9	0x3cc70072	0.024292205
10	0x3d805564	0.06266287
11	0x3decb846	0.11558585
12	0x3dd18330	0.102301
13	0x3d624535	0.055241782
14	0x3cc749a6	0.02432711
15	0x3d50b5f2	0.050954767
16	0x3dc4997c	0.09599587
17	0x3da72c26	0.081627175
18	0x3d2ea936	0.04264184
19	0x3cb4eccc	0.02208557
20	0x3cd2d28a	0.025735158
21	0x3d2c8637	0.042120185
22	0x3cfe6b5a	0.031057049
23	0x3c4fc6fd	0.01268172
24	0xb9c2bb15	-0.0003714195
25	0x3c4e6291	0.012596742
26	0x3d34e2d8	0.044161648
27	0x3d22e656	0.039770447
28	0x3d0da695	0.034582693
29	0x3c9e7f7b	0.019347897
30	0x3d4fef8e	0.050765567
31	0x3dc72bbd	0.09725139
32	0x3dbe43e5	0.092902936
33	0x3d65ddff	0.056119915
34	0x3cde46e4	0.027133413
35	0x3d5a9132	0.053361125
36	0x3dd67fad	0.10473571
37	0x3dd86f74	0.10568133
38	0x3d7ca7ae	0.06168335
39	0x3d051360	0.03248918
40	0x3d32cdfb	0.04365347
41	0x3dbf42bd	0.09338901
42	0x3dbb3e87	0.091427855
43	0x3d52172d	0.051291633
44	0x3c9b80d7	0.018982334
45	0x3cc6595d	0.024212534
46	0x3d20490a	0.039132155
47	0x3d0487fd	0.03235625
48	0x3c84f1e2	0.01622862
49	0x3a9ca521	0.0011951068
50	0x3c337549	0.010953256
51	0x3d2c6349	0.042086873
52	0x3d1d4566	0.03839626
53	0x3ce7116a	0.028206546
54	0x3c8a0fd6	0.016853254
55	0x3d5fe1e8	0.0546588
56	0x3dd7fd9f	0.10546421
57	0x3db549bf	0.088519566
58	0x3d511195	0.05104216
59	0x3cad1187	0.021126522
60	0x3d7f144d	0.06227522
61	0x3df959c9	0.12175328
62	0x3dda3d9e	0.10656284
63	0x3d51c822	0.051216252
64	0x3caf4578	0.02139543
65	0x3d564feb	0.05232231
66	0x3ddc9416	0.10770433
67	0x3dadc412	0.08484663
68	0x3d2ef653	0.04271538
69	0x3c6c01f6	0.014404764
70	0x3cf952a1	0.030434908
71	0x3d3b39d6	0.045709454
72	0x3cf7a06b	0.03022786
73	0x3c39c0d4	0.011337478
74	0xba5df3bc	-0.00084668
75	0x3bbb4934	0.0057155136
76	0x3d182486	0.037144206
77	0x3d215030	0.039383113
78	0x3cfb195a	0.030651737
79	0x3c701a7b	0.014654751
80	0x3d18b9b2	0.037286468
81	0x3d935a23	0.071949266
82	0x3db8984f	0.090134256
83	0x3d807281	0.0627184
84	0x3cfd5154	0.03092257
85	0x3ca13fec	0.0196838
86	0x3d975480	0.07389164
87	0x3da402a4	0.08008316
88	0x3d828e3e	0.06374787
89	0x3c946742	0.018115643
90	0x3bf9232d	0.0076030702
91	0x3d5ca75b	0.05387054
92	0x3d4ded3c	0.050275072
93	0x3d31a3fe	0.043369286
94	0x3cb627eb	0.022235831
95	0x3c6d1cf0	0.014472231
96	0x3c82a418	0.015947387
97	0x3d2401c2	0.04004074
98	0x3c507673	0.012723553
99	0x393c621b	0.00017965624
100	0xbbdc47e1	-0.006722436
101	0xbccd66e5	-0.025073478
102	0xbd1b5e3a	-0.03793166
103	0xbcf890aa	-0.030342419
104	0xbc8a6e8d	-0.016898418
105	0xbc963517	-0.018335862
106	0xbd8d9a23	-0.06914165
107	0xbdc776e5	-0.09739474
108	0xbd6f0bc0	-0.058360815
109	0xbce6f501	-0.028192999
110	0xbc921d4a	-0.017836232
111	0xbd7baff5	-0.061447103
112	0xbdac4079	-0.08410735
113	0xbd45d1e4	-0.04829587
114	0xbcc86d11	-0.02446607
115	0x3b0f1497	0.002183234
116	0xbd3d60e2	-0.046234973
117	0xbd85874d	-0.06519947
118	0xbd1c58a5	-0.038170476
119	0xbc04cb9b	-0.008105184
120	0xbbaaf66b	-0.0052173636
121	0xbd0b9724	-0.034079686
122	0xbcdab4b1	-0.026697489
123	0xbc93aa49	-0.018025534
124	0x3a286065	0.00064230553
125	0xb8d89b55	-0.000103286155
126	0x3cbdc585	0.023165474
127	0x3cdcfe94	0.026976861
128	0x3caf0893	0.021366393
129	0x3bafc56b	0.00536411
130	0x3caae11d	0.020859296
131	0x3d23ebf1	0.040019933
132	0x3d68d8b5	0.056847293
133	0x3ceb9eb1	0.028762193
134	0x3cdbc642	0.026827935
135	0x3c2658bc	0.010152992
136	0x3d4b6bd9	0.0496634
137	0x3d6e55f4	0.05818744
138	0x3d476280	0.04867792
139	0x3c49d4f7	0.012318841
140	0xb8cf1eb8	-9.876251e-05
141	0x3d48145e	0.04884755
142	0x3d0fc955	0.035104115
143	0x3d22652f	0.039647277
144	0x3ca10bc0	0.019658923
145	0x3c36cd15	0.011157294
146	0x3c39b3e3	0.011334392
147	0x3cf94f09	0.030433195
148	0x3c474d05	0.012164359
149	0x3b93ca59	0.0045102057
150	0x3d615828	0.055015713
151	0x3de0daf8	0.10979265
152	0xbd31c9dd	-0.043405402
153	0xbdf82f57	-0.12118404
154	0xbc94c798	-0.01816158
155	0x3c881062	0.016609374
156	0x3e2b061d	0.16701551
157	0x3e05f038	0.13079917
158	0xbd89344f	-0.0669943
159	0xbdd17340	-0.1022706
160	0xbd45ced0	-0.048292935
161	0x3cda7655	0.026667753
162	0x3e362945	0.1778918
163	0x3d56c7b6	0.052436553
164	0xbd68a210	-0.05679518
165	0xbcbf9f3b	-0.023391357
166	0xbd983468	-0.07431871
167	0x3c357f7d	0.011077759
168	0x3d95287b	0.07283112
169	0x3c20a8b7	0.00980585
170	0x3bbe2074	0.0058022086
171	0xbd26f91a	-0.040764906
172	0xbd2d5ea5	-0.04232659
173	0x3d05b7b1	0.032645885
174	0x3cb62d52	0.022238407
175	0x3d6ac707	0.057318714
176	0x3de1d49f	0.110268824
177	0xbd425cf8	-0.047451943
178	0xbe0973d4	-0.13423091
179	0xbc4dc857	-0.012559972
180	0x3c9482ed	0.018128837
181	0x3e1f153a	0.15535441
182	0x3ddba08e	0.10723983
183	0xbd925e7b	-0.07146927
184	0xbda03db0	-0.07824266
185	0xbdc04c64	-0.0938957
186	0x3d09c4ac	0.033634827
187	0x3e414e68	0.18877566
188	0x3da6b0cb	0.08139189
189	0xbd58e54e	-0.052953057
190	0xbc827150	-0.015923172
191	0xbdbf605b	-0.0934455
192	0x3c509808	0.01273156
193	0x3dbd677d	0.092482544
194	0x3cbecee5	0.023292014
195	0x3cadd28c	0.02121856
196	0xbd69c186	-0.057069324
197	0xbd051c10	-0.032497466
198	0x3d1585da	0.036504604
199	0x3ca264cd	0.019823456
200	0x3d5d1fc9	0.05398539
201	0x3dc90ce1	0.098169096
202	0xbd41f903	-0.047356617
203	0xbdf4b61c	-0.11948797
204	0xbc1dce08	-0.009631641
205	0x39c0d391	0.00036778723
206	0x3e09b5cc	0.13448256
207	0x3e01d11d	0.12677427
208	0xbd96ad73	-0.073573016
209	0xbdb1cb8e	-0.08681403
210	0xbd8e6f51	-0.06954826
211	0x3cb0cefc	0.021583073
212	0x3e272913	0.16324262
213	0x3d330cd2	0.0437134
214	0xbd470d30	-0.04859656
215	0xbaf89aba	-0.001896701
216	0xbd99f7b7	-0.07517951
217	0x3baf8662	0.005356596
218	0x3d96ddd1	0.07366527
219	0x3c124607	0.008927829
220	0x3c255f13	0.010093468
221	0xbd101f29	-0.035185967
222	0xbcbff13d	-0.023430461
223	0x3ce3daeb	0.02781435
224	0x3ba58a96	0.005051921
225	0xbc26bd6d	-0.010176999
226	0xbd564171	-0.052308504
227	0xbc57e7eb	-0.013177852
228	0x3ac7c06c	0.0015239841
229	0xbc04565e	-0.008077232
230	0xbd016d3d	-0.03159832
231	0xbda7dcbd	-0.08196399
232	0xbda5bcd9	-0.080926605
233	0xbc3cedc8	-0.011531301
234	0x3b95585f	0.004557654
235	0xbd8939bd	-0.06700466
236	0xbdc29d95	-0.09502713
237	0xbd937399	-0.07199783
238	0xbc3ff68c	-0.011716496
239	0xbb769772	-0.003762689
240	0xbd4783dc	-0.048709735
241	0xbda26f71	-0.07931412
242	0xbd7557db	-0.05989824
243	0xbc39db05	-0.011343722
244	0x3c3e21fc	0.011604782
245	0xbb8980ea	-0.004196276
246	0xbd112f44	-0.035445467
247	0xbd2cc415	-0.042179186
248	0xbbb0ca02	-0.005395175
249	0x3c40c602	0.011765959
250	0xbbf4a224	-0.0074656177
251	0xbc679523	-0.014134678
252	0xbaa70d09	-0.0012744974
253	0xbbd48cc8	-0.006486509
254	0xbad98776	-0.0016596157
255	0xbd1d8b91	-0.03846318
