models/svhn_unsup_all_conv_dcgan_100z_gaussian_lr_0.0005_64mb/200_gen_params.jl_07.npy (npy, 819280 bytes, 1 tensors)

array f4 [128, 64, 5, 5]
0	0xbc184b68	-0.009295322
1	0x3b3c08a8	0.0028691683
2	0xbcc625f4	-0.02418802
3	0xbd496798	-0.04917106
4	0x3cd25934	0.025677301
5	0xbc12964e	-0.008946968
6	0xbceced15	-0.028921643
7	0xbd5b5af6	-0.053553544
8	0xbc80e2f4	-0.01573322
9	0x3d921331	0.07132567
10	0xbcc01801	-0.023448946
11	0x3aff0811	0.001945736
12	0x3cc78c31	0.02435884
13	0xbd645b2c	-0.05575101
14	0xbdb8d936	-0.09025805
15	0xbda491f7	-0.08035653
16	0x3d41181d	0.047142137
17	0xbbaa5fa7	-0.005199391
18	0x3de040f2	0.10949887
19	0x3d2771d4	0.04088004
20	0xbceff436	-0.029291254
21	0xbc07178c	-0.00824536
22	0xbd78176f	-0.060569223
23	0x3c02fedc	0.0079953335
24	0x3c2cb229	0.010540524
25	0xbb98a4fe	-0.0046583405
26	0xbc909e6e	-0.01765367
27	0xbd7846cd	-0.060614396
28	0xbc04c0bb	-0.008102591
29	0x3d162448	0.036655694
30	0xbc6cb4eb	-0.014447431
31	0xbd251f2d	-0.040312935
32	0xbd9fc57d	-0.0780134
33	0xbc19b3e1	-0.009381265
34	0xbb535969	-0.0032249338
35	0x3c422266	0.011849022
36	0x3c0ba3fc	0.008522984
37	0xbdb53114	-0.088472515
38	0xbd16d9f0	-0.036828935
39	0x3c8335f0	0.01601693
40	0xbd0421fb	-0.03225897
41	0xbe01d26d	-0.12677927
42	0x3a908fa7	0.001102914
43	0x3e0a5489	0.1350881
44	0xbc7e1851	-0.015508727
45	0x3d283fda	0.04107652
46	0xbd2d1b16	-0.04226216
47	0xbd189be9	-0.037258063
48	0xbdc877fc	-0.0978851
49	0xbc1afe7d	-0.009460089
50	0xbd534160	-0.05157602
51	0x3cdee5de	0.027209219
52	0xbcac8987	-0.021061672
53	0xbd8a8847	-0.06764274
54	0x3c906a13	0.017628705
55	0xbad48f71	-0.0016217065
56	0xbd4ea2dd	-0.050448287
57	0x3c896f5e	0.016776737
58	0xbe3d582e	-0.18490669
59	0x3d143f1f	0.03619301
60	0xbc8f4ed2	-0.01749364
61	0xbdb62bbc	-0.088950604
62	0xbd1c0ca5	-0.038097996
63	0xbd7ce6fb	-0.061743718
64	0xbd670744	-0.056403413
65	0xbd8a2590	-0.06745446
66	0x3d564cda	0.052319385
67	0xbcb8e71a	-0.022571135
68	0xbcd39057	-0.025825663
69	0xbd5b0dfc	-0.053480133
70	0x3c25539d	0.010090736
71	0xbc1b33a8	-0.009472765
72	0x3cf63497	0.030054374
73	0xbc2250e1	-0.009906978
74	0xbcb2d11a	-0.021828223
75	0x3ca7cd58	0.020483658
76	0xbc3a0a5d	-0.01135501
77	0xbde805e3	-0.11329248
78	0xbdeae2ca	-0.11469038
79	0xbd2aba6f	-0.041681703
80	0x3d5b2920	0.053506017
81	0x3d806992	0.06270136
82	0xbce8e8eb	-0.028431376
83	0x3d86bf1a	0.065794185
84	0xbc887788	-0.01665856
85	0x3ad2042e	0.0016022974
86	0x3e18bba8	0.14915335
87	0xbcd1f066	-0.025627326
88	0xbe4affd4	-0.19824153
89	0x3ce22dd6	0.027609747
90	0x3d03e331	0.03219909
91	0xbcbe4d50	-0.023230225
92	0xbcef9d3b	-0.029249778
93	0xbc27b866	-0.010236835
94	0x3c10a6f3	0.008828866
95	0xbd43a771	-0.047767106
96	0xbda3b0a9	-0.079926796
97	0xbd581c14	-0.052761152
98	0xbd91f818	-0.07127398
99	0xbc9081e0	-0.017640054
100	0x3d0ae935	0.03391381
101	0x3d51b4aa	0.051197685
102	0x3c6b6236	0.014366677
103	0x3d9e2389	0.077216215
104	0xbba7b6e3	-0.0051182373
105	0xbc33bc3d	-0.0109701725
106	0x3d9164b1	0.070992835
107	0x3c847caf	0.016172735
108	0x3d567ccc	0.05236511
109	0x3dc88057	0.09790104
110	0x3ccbf986	0.024899255
111	0x3ca5e515	0.020250836
112	0x3d841534	0.06449357
113	0x3cab535d	0.020913774
114	0x3d2ccb50	0.04218608
115	0x3c729567	0.014806128
116	0x3d92b891	0.071641095
117	0xbdc89f23	-0.09795978
118	0x3d1dd1c5	0.03853013
119	0xbe031d50	-0.1280415
120	0xbc10d762	-0.008840414
121	0xbcca62fa	-0.024705399
122	0xbd82a056	-0.06378238
123	0x3cee5150	0.029091507
124	0xbd0ac22a	-0.033876576
125	0x3dac8c85	0.084252395
126	0x3d58e20c	0.05294995
127	0x3bb79cff	0.005603432
128	0x3c0bb899	0.008527898
129	0xbcb52140	-0.022110581
130	0x3d20fe06	0.039304756
131	0x3cfa7b2b	0.03057631
132	0x3d668066	0.056274794
133	0xbc66ce4c	-0.014087271
134	0x3d92adbd	0.07162044
135	0xbd72c793	-0.05927236
136	0xbc64725c	-0.013943281
137	0x3dbf6627	0.09345656
138	0xbd8bbd0e	-0.06823169
139	0x3d6d0324	0.057864323
140	0x3d079869	0.033104334
141	0x3daa2f68	0.08309823
142	0x3db19baf	0.086722724
143	0x3cc20799	0.023685263
144	0xbd98e24a	-0.07465036
145	0xbb36a36c	-0.0027868403
146	0xbcb3886b	-0.021915635
147	0xbc971cbc	-0.018446319
148	0xbcacf270	-0.021111697
149	0xbda36e24	-0.07979992
150	0x3d49ed42	0.049298532
151	0xbd6f4cb3	-0.058422755
152	0xba3e2e3f	-0.0007254816
153	0xbdbebd1f	-0.09313416
154	0x3cc8ec62	0.024526779
155	0x3dd1d8e5	0.102464475
156	0x3b5e29c1	0.00338994
157	0x3d3fc0a5	0.04681458
158	0xbd568c9d	-0.052380193
159	0x3d8ca5de	0.06867574
160	0x3d6789cc	0.056527898
161	0xbd87bda3	-0.06627967
162	0xbc639e10	-0.0138926655
163	0xbe03a430	-0.12855601
164	0x3d298cb6	0.041393958
165	0xbd3be4c1	-0.045872454
166	0xbadce99e	-0.0016854291
167	0xbcc96eb6	-0.024588924
168	0x3cabd863	0.020977205
169	0x3c8b527b	0.017007103
170	0x3bde8804	0.0067911167
171	0xbcdf28b0	-0.027241081
172	0x3bde8acd	0.0067914487
173	0x3bf20880	0.007386267
174	0xbcd9dfc7	-0.026595963
175	0xbc66be4f	-0.014083459
176	0xbde79e0c	-0.11309442
177	0xbb22abc7	-0.0024821626
178	0xbe0695ff	-0.13143156
179	0xbbf182d9	-0.0073703346
180	0x3d6957cf	0.056968506
181	0xbd840241	-0.064457424
182	0xbda7d684	-0.081952125
183	0xbd797312	-0.060900755
184	0xbca425b4	-0.02003751
185	0xbccf34bc	-0.0252937
186	0xbe0f0d05	-0.1396981
187	0xbd453e4c	-0.048155114
188	0xbd85aa77	-0.06526654
189	0x3b80a869	0.003926326
190	0xbd0bebc8	-0.034160405
191	0xbd354718	-0.044257253
192	0xba9d61c7	-0.0012007289
193	0xbdc9618d	-0.098330595
194	0xbc7ff6da	-0.015622819
195	0xbc7acd66	-0.01530776
196	0xbce98f70	-0.02851078
197	0xb9b48ca0	-0.0003443705
198	0xbd98eb18	-0.074667156
199	0xbce3b3ee	-0.027795758
200	0xbcf22b28	-0.029561594
201	0xbd2fc8ec	-0.042916223
202	0xbde66302	-0.11249353
203	0xbdf58cb5	-0.11989728
204	0x3d05d347	0.032672193
205	0xbd38cd2e	-0.04511755
206	0x3d6eecf5	0.05833145
207	0x3d47449d	0.04864942
208	0x3e09ed93	0.13469534
209	0x3ca2da19	0.019879388
210	0xbd939955	-0.0720698
211	0xbdfaaf2c	-0.12240443
212	0xbe2a06eb	-0.16604201
213	0xbdd4f248	-0.10397774
214	0xbd0ef28a	-0.034899272
215	0x3c6d6149	0.014488527
216	0xba13c27a	-0.0005636584
217	0x3d0debda	0.034648754
218	0x3d502432	0.05081577
219	0x3d3c103f	0.04591393
220	0xbb72ff69	-0.0037078506
221	0xbc928b76	-0.017888766
222	0x3c07be31	0.008285091
223	0xbd2a9030	-0.041641414
224	0xbb962195	-0.00458164
225	0x3c14a34e	0.009072138
226	0x3c820f89	0.015876548
227	0x3cf714df	0.03016132
228	0x3d0de0d9	0.03463826
229	0x3dd00da1	0.101588495
230	0x3e0f12a8	0.1397196
231	0xbcc39dcf	-0.02387896
232	0xbc4da4da	-0.012551511
233	0x3bf6c9e8	0.0075313933
234	0xbda15e11	-0.0787927
235	0x3cd1c7af	0.025607912
236	0xbcdceb9d	-0.026967818
237	0xbdbbe1f5	-0.09173957
238	0xbd1db69a	-0.03850422
239	0xbd07ddee	-0.033170633
240	0xbcf213cc	-0.029550456
241	0xbcd9e5ed	-0.026598895
242	0xbe1a7882	-0.15085033
243	0xbd7fb2c1	-0.062426332
244	0x3d50e315	0.050997812
245	0x3ca89677	0.02057956
246	0xbc5b59b7	-0.013388089
247	0x3d12192f	0.03566855
248	0xbd729bb6	-0.05923053
249	0x3d04860c	0.0323544
250	0x3d3f92fe	0.046771042
251	0x3db52bf5	0.08846275
252	0x3d49d157	0.049271908
253	0x3d1922e9	0.03738681
254	0x3d3ee63e	0.046606295
255	0x3d4cb571	0.049977724
