models/svhn_unsup_all_conv_dcgan_100z_gaussian_lr_0.0005_64mb/200_discrim_params.jl_08.npy (npy, 16464 bytes, 1 tensors)

array f4 [4096, 1]
0.28125766 0.21154468 0.20941941 0.23143418 -0.21862786 -0.28508893 -0.103870064 -0.22780801
-0.085160375 -0.13826138 -0.031114182 -0.19505951 -0.25935656 0.20894516 0.13741577 -0.06952277
-0.11311345 0.18746209 -0.13893898 0.34297454 -0.073124945 -0.015714237 -0.06989458 -0.13494976
-0.039439745 0.10996687 -0.08848996 -0.06692577 -0.1036068 0.277374 0.2509053 0.31087932
0.073344216 0.011013548 0.07689574 0.068044655 0.053717986 0.15524189 0.009332977 0.08448937
0.09876448 -0.08101795 -0.18551937 0.07064557 0.058483846 0.31716928 -0.038472522 0.040263362
-0.11999853 -0.10440945 0.110571325 0.18043491 -0.13318063 0.039527804 -0.09047987 -0.10422203
-0.0730661 -0.13932598 -0.13440484 -0.13443768 0.15810084 0.22858308 0.22739969 0.19421002
-0.29215595 -0.23319608 -0.19604345 -0.099457696 0.18146004 -0.11363129 -0.124616556 -0.20189188
0.35493916 0.3179731 0.18422927 0.27510485 0.14604782 -0.21562754 -0.037572708 0.24314551
-0.15976676 0.13234101 -0.13816431 0.03174557 0.102855116 -0.034091253 -0.044248544 0.052004497
0.06290654 -0.07676255 0.027099064 0.07483503 -0.15723819 0.09205099 0.21437196 -0.1768694
-0.32030717 0.23593448 0.32523036 -0.07829898 0.22686668 -0.0031750868 -0.06848754 -0.19361445
-0.1786901 -0.12803708 -0.0968691 -0.045378927 0.33121186 0.21597481 -0.10254649 0.32669386
-0.06935192 -0.057851385 -0.093768835 -0.09644337 0.01982148 -0.03738616 0.25653917 0.078168415
-0.091610804 0.292794 -0.15647845 -0.09074945 -0.08764828 -0.031689577 -0.1591601 -0.049459305
-0.04443792 0.158554 -0.1875826 0.011996417 -0.059888635 -0.007802492 -0.055654645 0.016586104
0.0063187866 -0.01733478 -0.10827181 -0.046797737 -0.032738872 -0.17249554 -0.028161103 -0.14786664
-0.15169567 -0.19101022 -0.1081079 -0.09527219 -0.13729541 -0.09886029 -0.109535776 0.0144019425
-0.09154093 0.036150783 0.2304182 0.01279426 -0.15752979 0.17892542 0.00930775 -0.20632978
0.033318922 -0.03413903 0.05139679 0.010761028 0.009586811 0.2111905 0.01446379 0.19622113
0.017593 0.33664003 0.0030030499 0.12701902 0.026212843 -0.03711109 0.1024808 0.17348988
0.17049666 0.2995822 0.17374353 0.14769109 -0.13313349 -0.11937331 -0.07997965 -0.11706519
-0.10020557 -0.03756234 0.21836528 -0.112730354 -0.16741136 -0.090332024 -0.057220053 -0.16352253
-0.05557446 -0.1546708 -0.15888308 -0.18647057 0.20071149 0.102065526 -0.06333647 0.21086551
0.34752208 0.1671703 -0.031448815 0.2243968 -0.23602171 -0.15740861 -0.15989059 -0.13445441
0.16737121 0.112398125 0.14111604 0.089817755 -0.0042797667 -0.14147618 -0.22780482 0.025735298
0.052702013 -0.21753238 -0.22374037 0.09526171 0.16542576 0.16286826 0.10860228 0.101678446
-0.21802843 -0.14068758 -0.14283228 -0.1653618 -0.15689218 0.19781296 0.17094971 -0.16901436
-0.12775841 0.022960996 0.21212134 0.02727822 -0.10561002 0.12659027 0.09800149 0.012675027
-0.03784839 0.23042572 0.23038402 0.18172225 0.12664236 0.22005363 0.038627572 -0.22052702
0.05717461 -0.0057290695 -0.24340655 -0.2578849 0.18496287 -0.10788825 -0.26041687 -0.1413634
00000000: 0101 903e 2b9f 583e 0b72 563e 15fd 6c3e
00000010: fbdf 5fbe 2df7 91be d4b9 d4bd 8146 69be
00000020: 9068 aebd 6494 0dbe 2be3 febc aebd 47be
00000030: 62ca 84be b8f5 553e b8b6 0c3e f461 8ebd
00000040: 06a8 e7bd 10f6 3f3e 0546 0ebe 5c9a af3e
00000050: 88c2 95bd 25bb 80bc e424 8fbd 4530 0abe
00000060: 928b 21bd 4f36 e13d 393a b5bd 6110 89bd
00000070: cd2f d4bd f703 8e3e a976 803e 932b 9f3e
00000080: 7e35 963d 2b72 343c 847b 9d3d ff5a 8b3d
00000090: 6407 5c3d bbf7 1e3e 58e9 183c c308 ad3d
000000a0: 0845 ca3d bdec a5bd caf8 3dbe a0ae 903d
000000b0: c28c 6f3d 0364 a23e 5d95 1dbd 32eb 243d
000000c0: cac1 f5bd 9fd4 d5bd 3873 e23d eec3 383e
000000d0: 8160 08be e8e7 213d 834d b9bd 5c72 d5bd
000000e0: aea3 95bd 78ab 0ebe 6ca1 09be 08aa 09be
000000f0: 30e5 213e af11 6a3e 77db 683e fede 463e
00000100: 7795 95be f4ca 6ebe 9dbf 48be 7ab0 cbbd
00000110: a9d0 393e 86b7 e8bd f736 ffbd bfbc 4ebe
00000120: 96ba b53e 5fcd a23e 99a6 3c3e 8bda 8c3e
00000130: 8f8d 153e 77cd 5cbe d7e5 19bd 23fb 783e
00000140: e699 23be 6784 073e f27a 0dbe a507 023d
00000150: b4a5 d23d 45a3 0bbd f63d 35bd ab02 553d
00000160: 25d5 803d af35 9dbd dbfe dd3c 1c43 993d
00000170: 0c03 21be 3b85 bc3d 5384 5b3e 411d 35be
00000180: 4dff a3be cf98 713e 9884 a63e 375b a0bd
00000190: bd4f 683e 1e15 50bb 3243 8cbd de42 46be
000001a0: 8afa 36be 271c 03be 4f63 c6bd 41df 39bd
000001b0: 9a94 a93e 8028 5d3e e503 d2bd 6b44 a73e
000001c0: 6108 8ebd 93f5 6cbd e009 c0bd 1a84 c5bd
000001d0: a860 a23c 3b22 19bd 1a59 833e c316 a03d
000001e0: 729e bbbd 18e9 953e e33b 20be d9da b9bd
000001f0: f180 b3bd eecc 01bd defa 22be d795 4abd
00000200: 8904 36bd fb5b 223e a715 40be 9f8c 443c
00000210: c94d 75bd 0cac ffbb 20f6 63bd 95df 873c
00000220: d30d cf3b ab01 8ebc 9cbd ddbd fcae 3fbd
00000230: 3219 06bd aca2 30be 1db2 e6bc 5a6a 17be
00000240: 1c56 1bbe 2f98 43be ad67 ddbd 111e c3bd
00000250: 2b97 0cbe 4477 cabd 4b54 e0bd 20f6 6b3c
00000260: d079 bbbd d812 143d c0f2 6b3e 049f 513c
00000270: 7d4f 21be 3a38 373e 887f 183c 1d48 53be
00000280: 6c79 083d 5ed5 0bbd 7185 523d 064f 303c
00000290: 0012 1d3c 5342 583e 88f9 6c3c 31ee 483e
000002a0: 321f 903c 155c ac3e d1ce 443b 4611 023e
000002b0: 51bc d63c cc01 18bd 74e1 d13d 55a7 313e
000002c0: ad96 2e3e d762 993e d3e9 313e 553c 173e
000002d0: 2554 08be fe79 f4bd 5fcc a3bd e0bf efbd
000002e0: 9438 cdbd f8da 19bd 269b 5f3e 2cdf e6bd
000002f0: e26d 2bbe ffff b8bd 935f 6abd 7372 27be
00000300: 0ca2 63bd 0662 1ebe 3fb2 22be 24f2 3ebe
00000310: 5087 4d3e bb07 d13d 8db6 81bd 21ed 573e
00000320: 6aee b13e b12e 2b3e 79d0 00bd 46c8 653e
00000330: adaf 71be b92f 21be 5cba 23be 6bae 09be
00000340: 5c63 2b3e fd30 e63d b980 103e 5ff2 b73d
00000350: 493d 8cbb 22df 10be ab45 69be d5d2 d23c
00000360: 11de 573d cfc0 5ebe 321c 65be 9218 c33d
00000370: 5f65 293e f0c6 263e df6a de3d ca3c d03d
00000380: d842 5fbe 6810 10be a042 12be 9b54 29be
00000390: 58a8 20be 7b8f 4a3e 710d 2f3e 1a12 2dbe
000003a0: 1ad3 02be b318 bc3c 5636 593e 9376 df3c
000003b0: 114a d8bd e1a0 013e 01b5 c83d ebaa 4f3c
000003c0: ea06 1bbd b8f4 6b3e cae9 6b3e 6615 3a3e
000003d0: 89ae 013e bd55 613e f237 1e3d d6d1 61be
000003e0: ed2f 6a3d ebba bbbb 913f 79be 7d09 84be
000003f0: e866 3d3e 84f4 dcbd 5c55 85be 91c1 10be
