models/imagenet_gan_pretrain_128f_relu_lrelu_7l_3x3_256z/30_discrim_params.jl_02.npy (npy, 589920 bytes, 1 tensors)

array f4 [128, 128, 3, 3]
000000 29 d5 9f 3c 76 35 a7 bd 6f 4d b5 bc 51 ae 6f 3d
       0.019510822 -0.08164494 -0.02213165 0.05851585
000010 23 ed 68 bd 54 2d 8f 3c 61 44 98 bc de fa 9f bd
       -0.056866776 0.017477669 -0.018587293 -0.07811521
000020 ef 61 40 3c e2 90 ad bc b2 18 dc bc 8c 3a 8d bb
       0.011742099 -0.02118725 -0.026867244 -0.004309958
000030 fa 1c 97 3c 3c 06 55 bd 4f d9 14 bd 1a e6 63 bd
       0.018446434 -0.0520079 -0.036340054 -0.055639364
000040 f9 09 6a 3c 4a db 0b 3d bf e8 cf 3d 2a 5d 43 bd
       0.014284604 0.034144677 0.10151815 -0.04769627
000050 94 f6 08 3c e3 c3 05 be f0 fa 2e be 18 1d d0 bd
       0.00835957 -0.13063006 -0.17087913 -0.10161799
000060 cb 48 64 3d b0 c1 1f 3d 67 c8 d8 3d 05 17 0e 3e
       0.055733483 0.039003074 0.10585099 0.13875969
000070 93 62 92 bd dc d8 b2 bd 07 fc f0 bd 15 f8 2f be
       -0.07147708 -0.08732769 -0.117668204 -0.1718448
000080 fd ea bb bd c4 65 6a bc 29 1a a8 bc 8d 4a 0b 3e
       -0.0917568 -0.014306489 -0.020520287 0.13602658
000090 0c 01 68 3d a7 64 53 be 15 de 36 bd d1 72 17 bd
       0.056641623 -0.20643865 -0.044645388 -0.03697473
0000a0 8f b6 67 be 89 89 3d bd 70 e7 8b 3b bf 2b 13 be
       -0.22628234 -0.046273742 0.004269533 -0.14372157
0000b0 95 2d d9 3c e5 dc 28 3d e1 04 63 3b 48 03 65 3d
       0.026510993 0.041226286 0.003464036 0.055911332
0000c0 5d 82 56 bd 38 5d 2c bd f9 31 3c 3c b4 46 d9 bd
       -0.052370418 -0.042081088 0.011486524 -0.10609189
0000d0 12 7a 81 bd 07 b8 c6 3d 10 a4 45 bd d8 9d 39 bd
       -0.06322111 0.09703069 -0.048252165 -0.045316547
0000e0 13 4a 84 3c ae 98 9a bd f6 62 30 bd a6 8a 6b 3d
       0.016148603 -0.075486526 -0.043063127 0.057505272
0000f0 e5 84 5b bd 81 53 1f 3d 66 38 d6 3d da 9c 9a bd
       -0.053593535 0.038897995 0.10459976 -0.07549448
000100 0f 63 84 bc c0 26 35 bd ee 71 3f bd 9f 4f 8f 3c
       -0.016160516 -0.044226408 -0.04673951 0.017494021
000110 aa c7 c2 3c c3 89 49 bd fa d7 0a bc 02 cc 6e 3d
       0.023776848 -0.049203645 -0.008474344 0.058300026
000120 95 19 f2 3d fc 15 85 3d 6d 58 b4 bc 14 9d 7b 3d
       0.11821286 0.06498334 -0.022014821 0.0614291
000130 d7 e7 48 3c d8 da 81 bd 61 69 cf 3d 86 3d fd bd
       0.012262306 -0.06340569 0.10127521 -0.1236525
000140 2a 8e ef bd dc 91 1d 3d df b9 da 3c c7 39 4f 3d
       -0.116970375 0.03846918 0.026699958 0.05059221
000150 ce 96 bc 3b 5b 60 13 3d be dc cd 3c 98 ed f2 3c
       0.005755282 0.035980564 0.025129672 0.02965431
000160 23 87 97 3d b4 f3 46 3e d0 6d 26 3c 8a 21 b0 3c
       0.07398822 0.19428903 0.010158017 0.021500368
000170 e2 fb a9 bc 15 b9 64 bd d6 92 69 3c c8 54 b0 3c
       -0.02074999 -0.05584057 0.0142562 0.021524802
000180 33 c9 06 bd 56 5c 1d 3d c0 f4 92 3d 9b d8 39 3d
       -0.032906722 0.038418137 0.071755886 0.045372587
000190 db 41 ff 3c f9 af f5 3d 86 f7 4a 3d da d0 10 bd
       0.031159332 0.11996455 0.049552463 -0.035355426
0001a0 88 c2 c5 3d 9a 85 5f 3d a4 85 24 3c f9 ec ae 3d
       0.096562445 0.05457077 0.010041628 0.08541293
0001b0 ea 88 ad 3d 88 8a 73 3d 83 f4 2a 3a 8e de 15 3d
       0.0847338 0.059458286 0.00065214204 0.036589198
0001c0 ec 36 25 bd 60 37 75 3c cf b0 ba 3b 14 c2 1a 3b
       -0.04033558 0.014966816 0.0056973468 0.0023614215
0001d0 36 8e 9a 3c f6 b5 18 3e 7b 0a 2a bd e7 a1 28 bd
       0.01886664 0.14913163 -0.0415139 -0.041170027
0001e0 4f d6 0b bc 75 b8 84 be 19 61 01 bd 4b d1 ac bd
       -0.008534982 -0.2592198 -0.03158674 -0.08438357
0001f0 aa b5 75 be 3e ff 48 3d 9b d9 e3 3d 9d 5c b6 3d
       -0.2399508 0.049071543 0.11125489 0.08904383
000200 b0 df ee 3d 19 0a f5 3d 99 5f 13 bd 81 41 e8 3c
       0.11663759 0.119648166 -0.03597984 0.028351547
000210 75 59 09 3d e6 d0 66 bd a3 82 87 bd 78 9b 86 bd
       0.03353258 -0.056351565 -0.06616714 -0.06572622
000220 7c 92 fb bd 3d bf 22 bd ac e2 9e bd 60 60 1c bd
       -0.12283799 -0.03973316 -0.07758078 -0.038177848
000230 4b e9 3c bd 57 c0 79 bd bd 9e 3f 3c aa 32 2a 3d
       -0.046120923 -0.060974445 0.011695561 0.041552223
000240 fd 27 d1 3d 40 cf 81 3d c0 bf a1 3d 2c de fb bc
       0.10212705 0.06338358 0.078979015 -0.030745588
000250 02 6b 90 bd 4c cb b1 bc d9 2e 8d bd 0b 79 a4 bd
       -0.0705166 -0.021703385 -0.06893701 -0.080308996
000260 36 93 c7 3d 33 86 0e 3d 30 8c 2d 3d 5d c5 98 3d
       0.09744875 0.03479595 0.04237002 0.07459519
000270 51 bb f6 bc 9c 93 01 3d d5 c1 a4 bb 71 81 3c bd
       -0.030118616 0.031634912 -0.0050279894 -0.046021882
000280 1a c9 54 3d 40 c1 d3 3b 0c af 4d 3c f9 be 3f 3d
       0.051949598 0.006462246 0.012553941 0.046812985
000290 94 9e 7d 3c df a5 17 bd 87 f0 f3 3c fc bc 11 3c
       0.0154797025 -0.03702342 0.029777778 0.008895155
0002a0 dc df f7 bc ba f8 0d 3d a1 0d 1b 3b ca 7f 0a 3d
       -0.030258112 0.034661032 0.0023659247 0.033813275
0002b0 5e 69 81 bd e0 17 b5 bb f4 ca 8e bd 29 bf ba bd
       -0.06318925 -0.0055265278 -0.06972304 -0.09118492
0002c0 71 85 9b bd ac 8c bf 3c 49 b1 77 3d d8 25 06 3e
       -0.07593811 0.023382507 0.060471807 0.13100374
0002d0 38 81 80 3d d5 aa db 3c 80 f2 cc bd ff 54 91 bc
       0.062746465 0.026814857 -0.10007191 -0.017740725
0002e0 95 f0 96 bd 44 4d 32 be fc 2e 1b bd a2 1f 01 be
       -0.07370106 -0.17412287 -0.037886605 -0.12609723
0002f0 eb e8 c6 bb fc 2d cc bc b2 d4 da 3c f3 0d 21 3d
       -0.0060702465 -0.02492427 0.02671275 0.039319944
000300 d8 c2 7c 3c 43 72 44 3d fc 18 ca 3d 9a 78 f1 bc
       0.015427314 0.04796053 0.09868047 -0.029476453
000310 bb 1a a2 3d 3c 47 f6 3c 73 4c 8e bb 60 39 7d 3d
       0.07915255 0.030063264 -0.0043426096 0.061822295
000320 b2 99 ba 3c 43 04 b7 bc f5 19 08 3d 33 ea 1c bd
       0.022778366 -0.0223409 0.03322788 -0.038309287
000330 55 7a 3e 3d 17 f4 84 3d da dd 1f bd 29 81 c2 3d
       0.046503384 0.06491869 -0.039029934 0.094972916
000340 d1 77 0b 3d 34 5c cf bd 1f 70 b3 3d 24 f9 f4 bd
       0.034049813 -0.10125008 0.0876162 -0.11961582
000350 39 c5 92 3b ba c7 f8 bc 5e 3e 89 bd e9 a1 ac 3c
       0.004479077 -0.030368675 -0.06701349 0.021073299
000360 3a 62 9c 3d f2 be 2b 3d c7 f8 ff bc 5c 7f 28 3c
       0.07635923 0.041930147 -0.031246556 0.010284271
000370 1e fe c4 bc 34 7f 67 3d 95 02 1d 3c a5 77 f6 bc
       -0.024046954 0.056517795 0.009583135 -0.030086348
000380 b7 60 7b 3c 58 de 20 bc a4 b5 23 bd bb 58 d0 bc
       0.015342883 -0.009818636 -0.039968148 -0.025432935
000390 27 44 26 bb ad d9 80 3c a3 94 d6 3c c2 73 93 bc
       -0.0025370212 0.015728796 0.026193922 -0.017999534
0003a0 7e ca 71 3d 9a 6d 96 3a f8 16 3e bb 90 33 1d 3d
       0.059031002 0.0011476756 -0.002900539 0.038379252
0003b0 ee 77 f0 bb 09 74 c7 bc 54 0c cd bd 8f 6b d9 bc
       -0.0073385155 -0.024347322 -0.10012117 -0.026540546
0003c0 11 b2 4d 3b 9d ae 0e bd ba 2f c4 3c 0b 5a 13 bc
       0.0031386653 -0.034834493 0.023948539 -0.008993636
0003d0 07 1d e7 3c 8e 47 8a 3d b3 e8 84 3d 44 3a 62 3d
       0.028212084 0.06751929 0.06489696 0.055231348
0003e0 00 91 a5 3d 33 3c 36 3d a1 ee fd 3c 56 a5 28 3e
       0.08084297 0.044491004 0.030997576 0.1646932
0003f0 e1 84 33 3d 09 08 3d 3c f3 24 e4 bc 71 d2 a3 bc
       0.043827895 0.01153756 -0.02784965 -0.019997807
