models/imagenet_gan_pretrain_128f_relu_lrelu_7l_3x3_256z/30_discrim_params.jl_01.npy (npy, 13904 bytes, 1 tensors)

array f4 [128, 3, 3, 3]
0	0x3cee8e83	0.02912069
1	0xbca9913c	-0.020699136
2	0xbcdc14d9	-0.02686541
3	0xbda34799	-0.079726405
4	0x3d54e8ae	0.051979713
5	0x3d0d10d2	0.03443987
6	0xbc2b7ad5	-0.010466297
7	0x3c847aca	0.016171832
8	0xbc2e42a1	-0.010636003
9	0x3d265327	0.040606644
10	0xbd4246c7	-0.04743078
11	0xbba0c3a7	-0.004906136
12	0xbd2d6e08	-0.042341262
13	0x3cd009bc	0.025395267
14	0x3c4841e0	0.012222737
15	0xbcbcac17	-0.023031278
16	0x3caf7148	0.021416321
17	0xbbe3cac0	-0.00695166
18	0x3d4fc911	0.05072886
19	0xbcbdd28b	-0.023171684
20	0x3c4ba082	0.012428405
21	0xbc705f53	-0.014671165
22	0xbce010e7	-0.02735181
23	0xbbef182d	-0.007296583
24	0x3cad2da7	0.021139933
25	0x3d294e87	0.041334655
26	0xbcb22788	-0.021747366
27	0x3cf4fbd8	0.029905245
28	0xbce7f3f8	-0.028314576
29	0xbc1478f9	-0.009062045
30	0xbd1c4c6c	-0.03815882
31	0x3cfbacb1	0.030721994
32	0xbc1a90e7	-0.0094339615
33	0xbd8e5345	-0.06949476
34	0x3d36eb94	0.04465826
35	0x3d20af7b	0.03922985
36	0xbd43312a	-0.04765431
37	0x3ce236d0	0.027614027
38	0xba09408e	-0.00052357547
39	0x3d91691f	0.071001284
40	0x3d810f5d	0.063017584
41	0xbc7f7e27	-0.015594042
42	0xbceb8dbd	-0.02875411
43	0xbd2c23af	-0.042026218
44	0xbd4f754f	-0.050648984
45	0xbcccbee5	-0.02499337
46	0x3d595c47	0.05306652
47	0xbc4e157d	-0.012578365
48	0xbb8297f3	-0.003985399
49	0xbdf0a50f	-0.117502324
50	0x3caa0b12	0.020757232
51	0x3ddf47f0	0.10902393
52	0xbd86465c	-0.06556389
53	0x3cf84f3e	0.030311223
54	0x3d8e2717	0.069410495
55	0xbda7de2a	-0.08196671
56	0x3c9519af	0.018200723
57	0x3d2e5b38	0.04256746
58	0xbcc5c20b	-0.024140378
59	0xbce12055	-0.027481237
60	0xbded2409	-0.11579139
61	0x3dd7ebb6	0.10543005
62	0x3c419085	0.011814241
63	0xbc284a3b	-0.010271604
64	0xbceef141	-0.029167773
65	0x3cc14d9b	0.023596575
66	0x3e2fd291	0.17170168
67	0xbcf6b6eb	-0.030116519
68	0xbded0676	-0.11573498
69	0xbe19eadc	-0.15030998
70	0x3d749b08	0.05971816
71	0x3dbc5f52	0.091978684
72	0x3cd24411	0.025667222
73	0xbd6deb59	-0.058085773
74	0x3d3363b6	0.043796264
75	0x3e0e77d9	0.13912906
76	0xbd05fc1a	-0.032711126
77	0xbdf363b4	-0.11884251
78	0xbe2ab9d5	-0.16672452
79	0x3db7aa1d	0.089679934
80	0x3d9bd1fc	0.07608411
81	0xbcb5f837	-0.022213085
82	0xbd9fcee2	-0.07803132
83	0x3cebdc8c	0.028791688
84	0xbdc1d1a7	-0.09463816
85	0xbe186ed5	-0.14886029
86	0xbd80cb38	-0.06288761
87	0x3e50fb60	0.20408392
88	0x3dcf9bf8	0.101371706
89	0x3d5e0116	0.054200254
90	0x3c8bf611	0.017085107
91	0x3d2e6f8b	0.042586844
92	0x3d66e7d4	0.056373432
93	0x3cb9b5cb	0.022669693
94	0x3dbb6ee0	0.09152007
95	0x3d84c123	0.064821504
96	0xbe26f771	-0.16305329
97	0xbd877d0a	-0.06615646
98	0xbd45fb08	-0.048335105
99	0x3c0277c7	0.007963127
100	0x3c585740	0.013204396
101	0xbd9abf12	-0.07555975
102	0x3d9a9b61	0.075491674
103	0x3d421291	0.047380988
104	0x3b80ebc0	0.0039343536
105	0xbd10594f	-0.03524142
106	0xbcb32014	-0.021865882
107	0xbc8594aa	-0.01630624
108	0x3ce7e29b	0.028306296
109	0xbcb87e06	-0.02252103
110	0xbc0b48b0	-0.008501217
111	0x3d83837c	0.06421563
112	0x3cd254cd	0.025675202
113	0xbdba1432	-0.09085883
114	0x3d485de7	0.048917677
115	0x3c94c6b7	0.01816116
116	0xbd8b605b	-0.06805488
117	0xbe0fc650	-0.14040494
118	0xbca2aa60	-0.019856632
119	0x3e275cfd	0.16344066
120	0xbe1ea7df	-0.15493725
121	0xbd110615	-0.03540619
122	0x3e445fa0	0.19177103
123	0xbdc9da22	-0.09856059
124	0xbd0b54c0	-0.03401637
125	0x3e072987	0.13199435
126	0x3de57618	0.11204165
127	0x3d22be92	0.039732523
128	0xbe1d8415	-0.15382417
129	0x3dbb3a37	0.09141963
130	0x3c079fb5	0.008277823
131	0xbdcc1c51	-0.099663384
132	0x3d51d89a	0.051231958
133	0x3c7de66f	0.015496834
134	0xbd80f3e8	-0.062965214
135	0x3d80e611	0.06293882
136	0xbc1b22b3	-0.009468722
137	0xbcd4d09b	-0.025978377
138	0xbd8f6f86	-0.07003693
139	0xbe1d5493	-0.15364294
140	0x3e35b25f	0.17743824
141	0x3df782eb	0.120855175
142	0xbdb7bc9b	-0.089715205
143	0xbc9c71dc	-0.019097261
144	0xbc6c2830	-0.014413878
145	0x3dc08f0e	0.094022855
146	0xbd9b0957	-0.07570141
147	0xbd8beb26	-0.068319604
148	0x3d544300	0.05182171
149	0x3d231abb	0.039820414
150	0xbbc4f2d7	-0.006010394
151	0x3bac8522	0.005264894
152	0xbc79c1e8	-0.015243985
153	0xbd0f0cc0	-0.03492427
154	0x3db1f840	0.08689928
155	0xbd9a4f54	-0.07534662
156	0x3b5b6509	0.003347697
157	0x3d73f2ca	0.059557714
158	0xbd17bb01	-0.037043575
159	0xbc682267	-0.014168358
160	0xbcfc0300	-0.03076315
161	0x3d0f0fb9	0.034927104
162	0x3d65a0a9	0.05606142
163	0x3d9f1293	0.077672146
164	0x3ccb44d5	0.024813095
165	0x3b9e09c1	0.00482294
166	0xbdc0ffcd	-0.0942379
167	0xbdb8504f	-0.08999693
168	0xbd2cdf67	-0.04220524
169	0xbbaad60d	-0.005213505
170	0x3da14325	0.07874135
171	0xbd2d279b	-0.0422741
172	0xbc54e497	-0.012993953
173	0xbc8988ef	-0.016788928
174	0x3d1ac902	0.037789352
175	0x3d21f2f5	0.039538343
176	0x3d164139	0.036683295
177	0x3c7ad547	0.015309638
178	0xbd11ae7b	-0.03556679
179	0xb88d9d46	-6.7526984e-05
180	0xbd103621	-0.03520787
181	0xbc8232db	-0.01589339
182	0xbd3300a9	-0.0437018
183	0xbc89a8be	-0.016804095
184	0x3d752a96	0.059855066
185	0x3ce1691f	0.027515946
186	0x3cc42e0e	0.023947742
187	0xbc6ab17f	-0.014324545
188	0x39816553	0.0002468029
189	0x3c9ebe4d	0.019377852
190	0xbc69fc0f	-0.014281287
191	0x3c1c872a	0.00955371
192	0xbc10d8c5	-0.008840744
193	0xbca51f6f	-0.02015659
194	0x3d0a2e7b	0.033735733
195	0x3c79031d	0.015198496
196	0xbd457ca8	-0.048214585
197	0x3c959711	0.01826051
198	0x3cf2fcd3	0.029661572
199	0xbce5c3ac	-0.028047405
200	0x3c9b7751	0.018977793
201	0xbd213aa2	-0.039362557
202	0xbd499de3	-0.049222838
203	0xbceb8e90	-0.028754503
204	0x3c81a7e5	0.015827129
205	0x3bd0d4fe	0.006373047
206	0x3cd3d70c	0.025859378
207	0xbc84e929	-0.01622446
208	0xbcc3d6f0	-0.023906201
209	0xbb6a106c	-0.0035715355
210	0xbd213527	-0.03935733
211	0xbd666186	-0.05624535
212	0xbd2ccf13	-0.04218967
213	0xbcbe4745	-0.023227343
214	0xbd14049e	-0.036137216
215	0xbc92e9ea	-0.017933805
216	0xbdf0ab97	-0.11751478
217	0x3c19c034	0.009384204
218	0x3df19931	0.11796797
219	0x3cb4df8c	0.022079252
220	0xbcf61a7d	-0.030041927
221	0x3a955f8a	0.0011396271
222	0x3dc718f9	0.0972156
223	0x3c94f054	0.018181004
224	0xbdea8fb8	-0.114531934
225	0xbdf45c21	-0.11931635
226	0xbd14d11f	-0.036332246
227	0x3e15ec73	0.1464098
228	0xbcbd9be1	-0.023145618
229	0x3cc37d35	0.023863414
230	0x3c5aa662	0.013345333
231	0x3e12ae30	0.1432426
232	0x3ca13c36	0.019682031
233	0xbe267603	-0.16255955
234	0xbdc2ff1c	-0.095213145
235	0xbcd67703	-0.026179796
236	0x3e011bbf	0.1260824
237	0xbd6ac71f	-0.057318803
238	0x3cae6d2b	0.02129229
239	0x3cfef9c5	0.031124959
240	0x3e1b49e1	0.15164901
241	0x3b842944	0.0040332396
242	0xbe1f3d24	-0.15550667
243	0xbc00446c	-0.007828813
244	0x3c21b8d0	0.009870723
245	0xb8977aa7	-7.223087e-05
246	0x3dfb0ffc	0.12258908
247	0x3da47bf8	0.08031458
248	0xbcbf24ca	-0.023332972
249	0xbdefa9d7	-0.11702316
250	0xbdbdb04d	-0.09262142
251	0x3cb78037	0.022400005
252	0x3c2cb099	0.010540151
253	0xbbcc5ab9	-0.006236401
254	0xbc7a721f	-0.015285998
255	0x3dd13e2f	0.10216939
