models/imagenet_gan_pretrain_128f_relu_lrelu_7l_3x3_256z/30_discrim_params.jl_17.npy (npy, 32848 bytes, 1 tensors)

array f4 [8192, 1]
0	0x3d739955	0.0594724
1	0x3c946e43	0.018118983
2	0x3d6d82b8	0.05798599
3	0x3ca5ea2e	0.020253267
4	0x3d352987	0.044229057
5	0x3d35645e	0.04428517
6	0x3db8eaf0	0.09029186
7	0x3d59f986	0.05321648
8	0x3cd3b07e	0.025840994
9	0x3cf7cef0	0.030250043
10	0x3c313743	0.010816398
11	0x3ca7a574	0.020464636
12	0x3d4c2902	0.049843796
13	0x3da0a68e	0.07844268
14	0x3d7bda2d	0.061487366
15	0x3cd5e037	0.02610789
16	0xbd715613	-0.058919977
17	0xbe03aefd	-0.12859721
18	0x3df4f9da	0.11961718
19	0x3e034080	0.12817574
20	0xbd3f76fa	-0.046744324
21	0xbdc3977e	-0.09550379
22	0xbca072ac	-0.01958593
23	0xbb9d8aea	-0.0048078196
24	0xbc8d86a4	-0.017276116
25	0x3d0cbb61	0.034358386
26	0x3d911ac0	0.0708518
27	0x3d782267	0.060579684
28	0xbdd35b6a	-0.1032017
29	0x3d3dcb2f	0.04633635
30	0x3d1fb7b9	0.03899357
31	0x3c84645c	0.016161136
32	0xbddb5b50	-0.10710776
33	0xbb8b70b8	-0.0042553805
34	0x3d200ca7	0.039074566
35	0x3d7148df	0.058907386
36	0xbd07f41b	-0.03319178
37	0xbd21b02a	-0.039474644
38	0x3ba5ca42	0.0050595114
39	0x3da50654	0.080578476
40	0x3cd20356	0.025636356
41	0xbd26a709	-0.04068664
42	0xbcb4479c	-0.022006802
43	0xbcd32ba6	-0.02577765
44	0xbd2b9a05	-0.04189493
45	0xbcf37a86	-0.02972151
46	0xbd4b09f2	-0.04957003
47	0x3c988437	0.018617732
48	0x3e184ab3	0.14872245
49	0xbe196c3d	-0.14982696
50	0xbc711c7b	-0.014716263
51	0xbd283df7	-0.04107472
52	0xbe2c9777	-0.16854654
53	0x3dca9d6e	0.098933086
54	0x3dbe44fe	0.09290503
55	0xbc8fafcc	-0.017539881
56	0xbdcbc735	-0.09950105
57	0xbac01e8d	-0.0014657542
58	0x3d15e8f2	0.036599107
59	0xbd2164f1	-0.039402906
60	0x3df1e787	0.118117385
61	0xbcf2bd6e	-0.029631343
62	0x3d154ceb	0.036450308
63	0xbccf3190	-0.025292188
64	0x3d98bb42	0.074575916
65	0x3e1ede49	0.15514483
66	0xbe31d2c1	-0.17365552
67	0x3e23dc15	0.16001923
68	0x3e130521	0.14357425
69	0xbdbce543	-0.09223416
70	0xbd6b7ec6	-0.057493947
71	0x3de580ee	0.11206232
72	0xbe4f8e83	-0.20269208
73	0xbda2637e	-0.07929133
74	0xbe0047f6	-0.12527451
75	0x3d089dcf	0.033353623
76	0x3de63ea9	0.1124242
77	0xbd342b36	-0.04398652
78	0xbda8b930	-0.08238447
79	0x3dfbfea5	0.12304429
80	0x3d1a8922	0.037728436
81	0x3d31f51e	0.043446653
82	0x3a7476fe	0.00093255925
83	0xbcfe43a4	-0.031038113
84	0xbcb306cb	-0.021853825
85	0x3dc19b71	0.09453476
86	0x3b87898d	0.0041362704
87	0xbc09706a	-0.008388618
88	0xbccc9f71	-0.024978371
89	0x3d59a6f7	0.053137746
90	0x3c08cd62	0.008349748
91	0xba7efa9c	-0.0009726675
92	0x3d8cf719	0.06883068
93	0x3e4fa111	0.20276286
94	0x3d16fdf0	0.036863267
95	0xbd4ad47d	-0.04951905
96	0xbe7b9c53	-0.24571352
97	0x3e2490bc	0.16070837
98	0x3d873ad8	0.066030204
99	0x3d0f7176	0.035020314
100	0x3e3e2d7a	0.18572035
101	0xbe0b52c7	-0.13605796
102	0xbd40482e	-0.046943836
103	0x3d803f06	0.06262021
104	0x3e21a60c	0.15785998
105	0xbde69dda	-0.112605765
106	0xbd1d5e56	-0.038420044
107	0x3d79a685	0.06094982
108	0x3e04e05c	0.12976211
109	0xbdcc789f	-0.09983944
110	0x3ac415c6	0.0014960102
111	0x3e0616bc	0.1309461
112	0xbbd2a19d	-0.006427957
113	0xbd24c7d7	-0.040229645
114	0x3d4de45c	0.05026661
115	0xbd9dff03	-0.07714655
116	0xbe0c1f0f	-0.13683723
117	0xbd4b3226	-0.049608372
118	0x3d5a4683	0.0532899
119	0x3d4acbeb	0.049510878
120	0x3d90e552	0.070749894
121	0xbdcb6693	-0.09931674
122	0x3d80460b	0.0626336
123	0x3d09a045	0.03360011
124	0x3e304634	0.1721428
125	0xbd879a2a	-0.06621201
126	0x3d12f94c	0.03588228
127	0xbd1f2696	-0.038855158
128	0xbda515ed	-0.08060823
129	0xbd86715c	-0.0656459
130	0x3cf612a8	0.030038193
131	0x3c8f3aef	0.017484156
132	0x3e61fe5b	0.22069685
133	0xbcaa7eab	-0.020812353
134	0x3d6a4b14	0.057200506
135	0xbd8a1774	-0.067427546
136	0xbe18e08d	-0.1492941
137	0xbcf0b0bf	-0.029381154
138	0x3c4820d0	0.012214854
139	0xbd7c7cc1	-0.061642412
140	0xbda79412	-0.08182539
141	0xbc397b85	-0.011320953
142	0x3db2bed9	0.087278076
143	0xbd510e8a	-0.051039256
144	0xbd5739b7	-0.052545276
145	0xbde5a013	-0.11212172
146	0x3dbf47c3	0.09339859
147	0x3df9b6ed	0.121930934
148	0x3e0bf437	0.1366738
149	0xbd95d2fd	-0.073156334
150	0xbd1489d7	-0.036264267
151	0xbb14c1a9	-0.0022698438
152	0x3dde3ca5	0.10851411
153	0xbd72a7b6	-0.059241973
154	0x3d90875c	0.07057068
155	0x3be32d28	0.0069328733
156	0xbd8cef69	-0.06881601
157	0xbd3e8aac	-0.046518967
158	0x3c7ef196	0.015560528
159	0x3d011367	0.031512644
160	0x3d70633a	0.05868838
161	0x3d10ce36	0.035352908
162	0x3d5a3db8	0.053281516
163	0x3d0b784d	0.034050275
164	0x3cead751	0.028667124
165	0x3df18b2b	0.11794122
166	0x3d85dcce	0.06536256
167	0xbb19fa2d	-0.0023495064
168	0x3d3221af	0.043489154
169	0x3dcee420	0.10102105
170	0xbc2548a6	-0.0100881215
171	0x3d0859c5	0.033288736
172	0x3d582bfc	0.05277632
173	0xbe01d95d	-0.12680574
174	0x3cf01b26	0.02930982
175	0x3e00b0c3	0.12567429
176	0xbd57bb9c	-0.052669153
177	0xbc99ee21	-0.018790307
178	0xbd69bad0	-0.057062924
179	0xbd6d5b7e	-0.057948582
180	0xbdaa9c0b	-0.08330544
181	0x3de0da5c	0.10979149
182	0x3cebe4d1	0.028795632
183	0xbd9f024b	-0.07764109
184	0x3b5f27fb	0.003405093
185	0x3de1c938	0.110247076
186	0xba23d8d0	-0.0006250264
187	0xbd417a6d	-0.047235895
188	0x3b419654	0.0029539065
189	0x3dd09a57	0.10185688
190	0x3ca86c20	0.02055937
191	0xbd54c835	-0.051948745
192	0xbe1e9874	-0.15487844
193	0xbdea9040	-0.11453295
194	0x3e276f7d	0.16351123
195	0x3e13865f	0.14406727
196	0xbd0e5788	-0.034751445
197	0x3d34a7a3	0.044105183
198	0xbc202b87	-0.009776003
199	0xbd628768	-0.055304915
200	0xbd5e600f	-0.054290827
201	0x3cbad0d0	0.022804648
202	0xbc2990b6	-0.010349443
203	0x3b55af77	0.0032605806
204	0x3e06211a	0.13098565
205	0x3d372ac9	0.044718537
206	0xbcd09ca2	-0.025465313
207	0xbd87c4c8	-0.0662933
208	0xbd4ca9d4	-0.04996665
209	0xbdd59020	-0.1042788
210	0x3cf7aef5	0.030234793
211	0xbd6f906e	-0.05848735
212	0xbdee3593	-0.11631312
213	0xbb30e1a1	-0.0026989954
214	0xbd73719c	-0.05943452
215	0x3c949017	0.018135114
216	0xbd8c87c0	-0.0686183
217	0xbc3e5a53	-0.011618215
218	0xbd56b76e	-0.052421026
219	0xbcc91d66	-0.024550151
220	0x3e2fe502	0.17177203
221	0x3cd019c4	0.025402911
222	0x3c94cc00	0.018163681
223	0x3c2a127d	0.0103803845
224	0x3c886f31	0.016654583
225	0xbcf3c59c	-0.029757313
226	0x3d8ef2d3	0.06979909
227	0xbc9479b8	-0.018124446
228	0x3cf4dc56	0.02989022
229	0xbc4a81a5	-0.012360011
230	0xbd02ca92	-0.031931467
231	0xbcf7027d	-0.030152554
232	0xbc4897dd	-0.012243238
233	0xbca3b98b	-0.019985935
234	0x3c754c8a	0.014971862
235	0x3bff7005	0.007795336
236	0xbd9997b8	-0.07499641
237	0x3dce3979	0.10069556
238	0x3e1ffe65	0.15624388
239	0x3d3d4101	0.04620457
240	0xbd8b76f7	-0.068098
241	0x3e03107c	0.12799257
242	0xbca94b7d	-0.020665878
243	0xbda1b4a2	-0.07895781
244	0x3e0536af	0.13009141
245	0x3d1252f8	0.035723656
246	0x3cd9a5d6	0.026568335
247	0xbd07e088	-0.033173114
248	0xbd33a7d8	-0.04386124
249	0x3d5f825a	0.054567672
250	0xbb28b309	-0.002574148
251	0xbd51bd41	-0.051205877
252	0xbdf50234	-0.11963311
253	0x3d9b042a	0.075691536
254	0xbcd0987f	-0.02546334
255	0xbd92b869	-0.0716408
