models/imagenet_gan_pretrain_128f_relu_lrelu_7l_3x3_256z/30_gen_params.jl_03.npy (npy, 32848 bytes, 1 tensors)

array f4 [8192]
0	0xbe93338e	-0.2875027
1	0xbcac4760	-0.021030128
2	0xbe146fd7	-0.14495789
3	0xbdf2937c	-0.11844537
4	0xbe81d1ad	-0.25355282
5	0xbe2e79fa	-0.17038718
6	0xbe2eaf39	-0.1705903
7	0xbd243e92	-0.040098734
8	0xbe44feb4	-0.19237787
9	0xbe455c9d	-0.1927361
10	0xbcd67125	-0.026176998
11	0xbdff898f	-0.12477409
12	0xbe178b9b	-0.14799349
13	0xbd8ee77a	-0.069777444
14	0xbd7fcdbd	-0.062452067
15	0xbdb3f612	-0.087871686
16	0x3d1d600d	0.03842168
17	0x3cf11532	0.029429052
18	0xbe20a48f	-0.15687774
19	0x3d9aeefa	0.075651124
20	0xbe191d70	-0.14952636
21	0xbe0394ed	-0.1284978
22	0xbe7a8849	-0.24466051
23	0xbe2d87fb	-0.16946404
24	0xbd9a80ce	-0.07544099
25	0xbd39a224	-0.045320645
26	0xbe0a257c	-0.13490862
27	0xbe0432f1	-0.12910058
28	0xbba0982d	-0.0049009533
29	0x3cf70fa4	0.030158825
30	0xbdb9b7e5	-0.09068278
31	0x3c5d1631	0.01349406
32	0xbdf4410e	-0.11926471
33	0xbdbd0703	-0.09229853
34	0xbde3ebe6	-0.111289784
35	0xbe00c743	-0.12576012
36	0x3d493a69	0.04912797
37	0xbe5ca3f0	-0.21546912
38	0xbdce21de	-0.100650534
39	0xbe36fd25	-0.17870004
40	0xbd3811c3	-0.044938814
41	0xbe31a3e6	-0.17347679
42	0xbc0689d8	-0.008211575
43	0xbd98ac94	-0.07454792
44	0xbd0f9f78	-0.03506419
45	0x3cf70a73	0.03015635
46	0x3dfb0995	0.12257687
47	0xbb747545	-0.0037301343
48	0x3ce3ffe0	0.027831972
49	0xbe0a2f6f	-0.13494657
50	0xbda0f56c	-0.078593105
51	0xbdba1236	-0.09085505
52	0xbd64e509	-0.055882487
53	0xbdf89d4e	-0.121393785
54	0xbe37d356	-0.17951712
55	0xbd8c0f02	-0.068388
56	0xbd639af0	-0.05556768
57	0xbe828cdb	-0.2549809
58	0xbe82ee8b	-0.2557262
59	0xbdc7dc6b	-0.09758838
60	0xbe6c4ee2	-0.23076966
61	0xbeac7d08	-0.3368914
62	0xbeaffb5d	-0.34371462
63	0xbea52930	-0.32257986
64	0xbe79ef5e	-0.24407718
65	0x3cc2866d	0.02374574
66	0xbe3acde8	-0.1824261
67	0xbd888697	-0.06666296
68	0xbe177e11	-0.14794184
69	0x3d0656b8	0.032797545
70	0xbe08d357	-0.1336187
71	0xbd5077f9	-0.050895665
72	0xbdbdfe6e	-0.09277044
73	0xbdedbbd0	-0.11608088
74	0xbe32a13f	-0.17444323
75	0xbdf102a5	-0.117680825
76	0xbdae66f7	-0.08515733
77	0xbe91513e	-0.28382295
78	0xbe910473	-0.28323707
79	0xbe4f290c	-0.20230502
80	0xbe22ff3b	-0.15917675
81	0xbe7d3394	-0.24726707
82	0xbe0fde82	-0.14049724
83	0xbc7201b8	-0.014770918
84	0x3d5f00a0	0.054443955
85	0x3c83be03	0.016081816
86	0xbe361311	-0.17780711
87	0x3c648e25	0.0139499055
88	0x3a7d36a6	0.00096593273
89	0x3decf568	0.11570245
90	0xbe0903c1	-0.13380338
91	0xbde25c77	-0.110527925
92	0x3e13278f	0.14370559
93	0xbd9995db	-0.07499286
94	0xbdbcac1c	-0.09212515
95	0x3e0f3394	0.13984519
96	0x3df39805	0.1189423
97	0x3e60c4e0	0.21950102
98	0x3d5433c9	0.0518072
99	0x3e6edcad	0.23326369
100	0x3e062b11	0.13102366
101	0x3dd3443a	0.103157476
102	0xbde6e240	-0.112736225
103	0x3e529e65	0.20568235
104	0xbd821e21	-0.06353403
105	0xbdc60498	-0.09668845
106	0xbeaa2311	-0.3322988
107	0x3c1ac05f	0.009445279
108	0x3d86af8d	0.065764524
109	0x3e4baa20	0.19889116
110	0xbe1fa861	-0.15591575
111	0x3e414835	0.18875201
112	0xbe19a70c	-0.1500513
113	0xbe4ca9b4	-0.19986612
114	0xbe8c3065	-0.27380672
115	0xbdeae111	-0.11468709
116	0xbe07c6a6	-0.13259372
117	0xbd8d5020	-0.06900048
118	0x3c27ebbb	0.010249074
119	0xbd6e6d1f	-0.058209535
120	0xbcdb00f1	-0.026733847
121	0xbd21c3f4	-0.039493516
122	0xbd2a0fcf	-0.041518982
123	0x3b18a51d	0.0023291775
124	0xbd631358	-0.05543837
125	0xbd97d736	-0.07414095
126	0xbcf93142	-0.030418996
127	0xbd7cbfdd	-0.061706413
128	0x3cc5d40a	0.02414896
129	0xbe0f444a	-0.13990894
130	0xbdfb7532	-0.122782126
131	0xbd330fea	-0.04371635
132	0x3d7824c8	0.060581952
133	0xbe97a328	-0.29616666
134	0xbe85fab5	-0.26167837
135	0xbddbcf63	-0.10732915
136	0xbd4f38f3	-0.05059142
137	0xbe5fcd35	-0.21855624
138	0xbe5aae67	-0.21355592
139	0xbe253cd2	-0.16136482
140	0xbd0db84c	-0.034599587
141	0xbe831022	-0.25598246
142	0xbe43471f	-0.190701
143	0xbe5becbe	-0.21477029
144	0xbeeb9b56	-0.4601695
145	0xbe901ae9	-0.2814553
146	0xbe9ff789	-0.31243542
147	0xbebcc8eb	-0.36872038
148	0xbe83f70b	-0.25774416
149	0xbc3192cf	-0.010838225
150	0xbc1f4902	-0.009721996
151	0xbdcc4ba8	-0.09975368
152	0xbe4d5f46	-0.20055875
153	0xbc02a089	-0.007972845
154	0xbc151d71	-0.009101258
155	0xbdc15c5f	-0.094414465
156	0xbe76356f	-0.24043821
157	0xbdcec6b5	-0.10096494
158	0xbe3e499d	-0.18582769
159	0xbe671809	-0.22567762
160	0xbd02f6fb	-0.03197382
161	0xbd5037ec	-0.05083458
162	0xbe7f27a6	-0.24917468
163	0xbcc8a218	-0.024491355
164	0xbd557f05	-0.05212309
165	0xbe916e20	-0.2840433
166	0xbe1d65b1	-0.15370823
167	0xbdaf17df	-0.08549475
168	0xbce88c1e	-0.028387126
169	0xbe0707f1	-0.13186623
170	0xbea5a6f3	-0.32353935
171	0xbd42d28e	-0.04756408
172	0x3e32c695	0.17458566
173	0xbdb9cb1a	-0.09071942
174	0xbe7ad60a	-0.24495712
175	0xbc56b743	-0.013105216
176	0xbe77a487	-0.24183856
177	0xbe8f9270	-0.2804141
178	0xbe206d16	-0.15666613
179	0xbdfe572c	-0.124189705
180	0xbe7a9b19	-0.24473228
181	0xbe01e9c7	-0.12686835
182	0x3c965cbc	0.018354766
183	0xbdf9a882	-0.121903434
184	0xbe10157c	-0.14070696
185	0xbe1549b8	-0.14578903
186	0x3c3a51b6	0.0113720205
187	0x3c950759	0.01819198
188	0xbe4be4a6	-0.19911441
189	0xbb92320c	-0.0044615325
190	0xbc051600	-0.008122921
191	0xbc6e76ed	-0.014554721
192	0xbe5c81a2	-0.21533826
193	0xbe947d08	-0.2900164
194	0xbe43d613	-0.19124632
195	0xbe8f2848	-0.2796042
196	0xbc5df912	-0.0135481525
197	0xbc4146c0	-0.011796653
198	0x3e87142f	0.26382586
199	0xbe3ea8f0	-0.18619132
200	0xbd4dc37b	-0.050235253
201	0x3cddbd30	0.02706775
202	0xbb92ccda	-0.0044799866
203	0xbe685e6b	-0.22692268
204	0xbd6f4794	-0.05841787
205	0x3e245923	0.16049628
206	0x3e2fcf4f	0.17168926
207	0xbe366e85	-0.17815597
208	0xbd878a80	-0.06618214
209	0xbd67d0bb	-0.056595545
210	0xbcf53c42	-0.02993596
211	0xbdbd3333	-0.09238281
212	0xbd86eadf	-0.06587767
213	0xbe3fdaf9	-0.18735875
214	0xbea106d0	-0.3145051
215	0xbdd2fcda	-0.10302134
216	0xbca95a91	-0.020673068
217	0x3d17d43d	0.03706764
218	0xbde3f0c1	-0.111299045
219	0xbe1c6bb6	-0.15275463
220	0xbd46a1e8	-0.04849425
221	0xbcd3ca6d	-0.02585336
222	0xbd3fdf39	-0.04684374
223	0xbd4fba51	-0.050714795
224	0xbe56995d	-0.20956941
225	0xbe3ad439	-0.18245019
226	0xbdd094f9	-0.10184664
227	0xbdde52a6	-0.10855608
228	0xbe223d15	-0.15843613
229	0xbe1402fa	-0.1445426
230	0xbe0371eb	-0.12836425
231	0xbe1dded8	-0.1541704
232	0xbdc43fa4	-0.09582451
233	0xbde44964	-0.11146811
234	0xbdc15a4a	-0.094410494
235	0xbe647449	-0.22309984
236	0xbdb1e952	-0.086870804
237	0xbdbf53cc	-0.09342155
238	0xbcd998be	-0.026562091
239	0xbdecd038	-0.11563152
240	0xbdb82259	-0.08990926
241	0xbd0e41f1	-0.034730855
242	0x3e1f00bb	0.15527622
243	0xbe4915d1	-0.19637229
244	0xbdab39a4	-0.083606035
245	0x3da2be38	0.079464376
246	0x3db66519	0.089060016
247	0x3d82c53b	0.06385275
248	0xbdcb33cb	-0.09921988
249	0x3d509d82	0.05093146
250	0x3d09d41e	0.033649556
251	0xbe018f4f	-0.12652324
252	0xbe01fde8	-0.12694514
253	0x3e10efba	0.14153948
254	0x3daaa3fe	0.0833206
255	0x3d7be8f5	0.061501462
