models/imagenet_gan_pretrain_128f_relu_lrelu_7l_3x3_256z/30_gen_params.jl_19.npy (npy, 13904 bytes, 1 tensors)

array f4 [128, 3, 3, 3]
000000 8c 6a 63 3c 3e 1a 9a 3a 8f f7 49 3c fc 9b 85 3c
       0.013880383 0.0011757088 0.012327089 0.01630973
000010 7c f7 3a 3d b3 33 e1 3c b2 30 08 bd 86 1a 03 bc
       0.045646176 0.027490472 -0.033249564 -0.008001929
000020 97 b8 90 3c fc 68 9b 3d c2 13 4f 3e ab 3d f1 3d
       0.017666144 0.075883836 0.20222381 0.1177934
000030 b3 2e 27 3e 71 c6 cf 3e d2 0e 89 3e c0 fb 42 3c
       0.16326408 0.40581086 0.2676912 0.011900842
000040 c9 c0 c4 bc 6b e3 28 bc da e7 90 bc 65 55 78 bd
       -0.024017708 -0.010308127 -0.01768868 -0.060628314
000050 76 af 71 3a 7e f2 ae bd 42 57 14 be a7 81 c8 bd
       0.0009219566 -0.085423455 -0.14486411 -0.09790354
000060 7e 69 6d 3c 9c 74 5b 3d 13 c5 66 3c eb 4b 0c bd
       0.014490483 0.053578004 0.014085072 -0.03425209
000070 b1 ee 2f 3c b2 65 41 3c 58 f6 24 bd dc 37 d9 b8
       0.010738061 0.011804031 -0.040273994 -0.00010357771
000080 df 5d 85 3c 71 3e 76 bc b3 07 4a bc 94 11 81 3b
       0.016280113 -0.015029536 -0.012330937 0.003938863
000090 32 60 55 bd 1c c0 b7 3c 24 f9 4a 3d 1e 7c a7 bd
       -0.052093692 0.022430472 0.049554005 -0.0817797
0000a0 38 d7 1f 3a 6b b5 73 3d e0 de 23 bd e7 94 95 bc
       0.0006097439 0.059499186 -0.040007472 -0.018259479
0000b0 69 05 e3 3c a6 c4 d2 bd c7 28 24 3d 88 73 a7 3d
       0.02771254 -0.10291414 0.04007795 0.08176333
0000c0 59 60 27 be e2 ff 9e 3c 1e 77 01 3e 4a 1b aa bd
       -0.16345347 0.019409124 0.12643096 -0.08305986
0000d0 8f 9f e2 bc 3c 44 86 3d 72 e2 8d 3d 34 c9 07 3e
       -0.027663974 0.065559834 0.06927957 0.13260347
0000e0 cb 3c 89 3d 1a 15 d3 3d ea 77 79 3e ed d2 f2 3d
       0.067010485 0.10306759 0.2436215 0.11856637
0000f0 ec a6 20 3d 05 b9 af 3d 05 4d 6e 3d e9 3d 58 3c
       0.03922169 0.085802115 0.05817892 0.013198354
000100 aa a9 3b 3c fd 3a 92 39 66 63 df 3b 8e 11 b5 3c
       0.011454025 0.0002789124 0.006817269 0.022103097
000110 18 e7 4f 3c 71 0a 93 bb 20 21 40 3c ab 66 61 3c
       0.012689374 -0.0044873287 0.011726648 0.013757388
000120 57 45 f8 3a 5d 28 4f b9 a8 4f 3a 3c b0 04 5f 3a
       0.0018941563 -0.00019756095 0.011371531 0.00085074734
000130 bd dd 17 bb b7 70 28 3c 80 38 02 3b e3 b7 a7 3b
       -0.0023172938 0.01028078 0.0019870102 0.0051183566
000140 16 30 29 3b 9a cb 9a bc 91 11 5d 3c 63 c5 e7 38
       0.0025816015 -0.018895913 0.013492958 0.000110517045
000150 23 21 b8 3d ca e8 7f be 2e e4 cf 3c 9e 0c 07 bc
       0.08990695 -0.24991146 0.02537736 -0.008242754
000160 c6 0f 8c 3d b6 bf b2 bc bb 78 43 bc d5 8e 7c 3c
       0.06838946 -0.02181993 -0.01193064 0.015414913
000170 98 c2 39 bb 17 43 bf 3d 12 09 80 be e0 99 ae 3c
       -0.0028344747 0.09338968 -0.2500692 0.021313608
000180 8c 08 71 bc 3d 62 90 3d 8f 63 a7 bc ef a6 f2 bb
       -0.01471151 0.070499875 -0.020433215 -0.007405154
000190 c5 c7 79 3c 44 2c f4 ba 84 cd ac 3d ec 04 81 be
       0.015245383 -0.0018628915 0.084376365 -0.25199068
0001a0 9a cf 60 3c 79 7e 30 bc 92 18 89 3d de 7c 87 bc
       0.013721371 -0.010772341 0.066941395 -0.016539034
0001b0 dd 3b a9 bd 52 f7 47 bd f1 3a 7c 3d 54 04 2f 3e
       -0.08263371 -0.048819847 0.06157965 0.17091495
0001c0 1e 05 b4 3b ca 0e 2b be 6f 72 5b bd a8 95 16 3d
       0.005493774 -0.1670486 -0.05357593 0.036763817
0001d0 d7 5b b3 3d ee 81 a1 bd d7 53 49 bd ac e4 72 3d
       0.087577514 -0.0788611 -0.04915222 0.05930011
0001e0 bc 02 27 3e 24 1f 80 3c f0 01 29 be ff 78 4e bd
       0.16309637 0.015639849 -0.16504645 -0.05040836
0001f0 eb e0 22 3d be dc ad 3d cc b2 8b bd 57 8c 54 bd
       0.03976528 0.08489369 -0.06821212 -0.05189165
000200 6d 8b 5a 3d 29 8b 20 3e 1c 9d 73 3c d4 df 22 be
       0.053355623 0.15678085 0.014869001 -0.15905696
000210 e1 43 30 bd b5 cc 19 3d 98 3d a9 3d 3b e4 32 3e
       -0.043033484 0.03754874 0.08263701 0.17469876
000220 5d 07 9d 3e a5 22 05 3e 5f 48 52 3e fe 0c ad 3e
       0.3066968 0.13001497 0.2053542 0.33798975
000230 36 43 1a 3e 55 2a b0 3c ae 00 56 3d b2 9f 29 3d
       0.15064701 0.02150456 0.052246742 0.041412063
000240 da 49 9d 3d f0 78 f5 3d 31 db 32 3d 0a 71 b4 3d
       0.07680102 0.119859576 0.04366607 0.08810623
000250 fb 7e 11 3e 94 d4 b6 3d 0f 1e b2 3c 9c 94 22 3d
       0.14208595 0.08927265 0.021742849 0.039692506
000260 ba b9 ec 3c bb 52 91 bd 7f b9 d7 bd 11 0a 1c bd
       0.028897155 -0.07095858 -0.105334274 -0.038095538
000270 23 b0 79 bd 00 b5 c6 bd 62 28 d7 bc 66 e9 b3 3c
       -0.060958993 -0.09702492 -0.026264373 0.021961879
000280 cb d8 92 3c 2e 35 f2 bc ca 5e 4d 3d fa fd bd bd
       0.01792564 -0.029566374 0.050139226 -0.09276958
000290 82 ea 04 3c f2 f7 b3 3d cb 7e 40 be 05 92 5a 3c
       0.008112552 0.08787526 -0.18798368 0.013340478
0002a0 ca 59 36 3d db 2b f5 bd f7 81 c4 3b b0 3e 3d 3d
       0.044519223 -0.119712554 0.0059969383 0.04620236
0002b0 45 29 b5 bd 3d 2a e2 3b 9b f2 bf 3d a2 08 42 be
       -0.08845762 0.006902008 0.09372445 -0.18948606
0002c0 db 90 75 3c fc 8f 3b 3d 8e 07 f5 bd ae 28 db 3b
       0.0149881495 0.04579161 -0.119643316 0.006688199
0002d0 ef ce 56 3d b1 f0 ab bd e4 4b 43 3c 20 8e bd 3d
       0.05244344 -0.083955176 0.011919949 0.09255624
0002e0 f8 0f 3c be 7b f3 a6 3c 61 d1 5a 3d c2 d1 e9 bd
       -0.18365467 0.020379772 0.053422336 -0.11416961
0002f0 3e 6e 11 3c 29 31 8b bc 4d af fd bc 8f ba 67 bc
       0.008876381 -0.016991215 -0.030967379 -0.0141436
000300 81 71 10 3e 9d 01 7b 3e 07 d9 de 3d 62 a4 8f bc
       0.14105798 0.24512334 0.108812384 -0.017534439
000310 bf df 0a bd 28 2a 8a bc d3 30 b2 bc 6a 72 f4 bc
       -0.033904787 -0.016865805 -0.021751797 -0.029839713
000320 fc e1 0d bc 8d b0 12 3e 88 af 80 3e 35 8a dc 3d
       -0.008659836 0.14325161 0.2513392 0.107685484
000330 c6 05 9a bc 33 75 13 bd a2 8e 82 bc e5 b5 c0 bc
       -0.018801581 -0.03600044 -0.015937153 -0.023524234
000340 6a ce df bc 6e e3 19 bc 96 c0 18 3e 85 09 83 3e
       -0.027320106 -0.009392602 0.14917216 0.255932
000350 10 04 ff 3d e6 d8 71 bc 47 4b f5 bc 56 91 8a bc
       0.12451947 -0.014761185 -0.029943122 -0.016915005
000360 dd d7 2c bc 89 c1 52 3c 43 c1 8a bc 5c 57 22 bc
       -0.010549513 0.012863525 -0.016937857 -0.009908523
000370 26 6a 88 bd f1 5e e7 3c e4 e7 71 bc fe e0 24 3d
       -0.06660871 0.028243514 -0.01476476 0.04025363
000380 e4 19 84 bc c6 91 b9 bb 9d b4 06 bd cc 03 ed 3b
       -0.016125627 -0.0056631295 -0.03288709 0.0072331186
000390 15 2a aa 3c 70 7f c1 bc 8f d8 2f 3d 6f 58 6c bb
       0.02077202 -0.023620337 0.042931136 -0.0036063453
0003a0 8f 7c 18 bc 03 e2 08 bb 0f 6d c1 bc d1 08 67 3c
       -0.009307041 -0.0020886667 -0.023611574 0.014101223
0003b0 dd 5a d9 bb 76 aa 10 3d 49 d3 b5 3e cb 3b a1 bb
       -0.006633146 0.035318814 0.3551276 -0.004920458
0003c0 f8 16 1a bc a9 a2 01 3b 4a 87 0e bc 93 93 0a be
       -0.00940489 0.001978079 -0.008699248 -0.13532858
0003d0 ba 26 81 3e 40 94 b7 bd 4e d7 1a bc 07 97 a8 bc
       0.2522486 -0.08963823 -0.009450747 -0.020579828
0003e0 4b e5 64 3c bc b4 ed 3d 36 cd 6a be ff 60 c6 3d
       0.013970683 0.11606738 -0.22929844 0.09686469
0003f0 6d 48 06 be 6b 17 78 3e 2d eb b3 bd 6e 70 b1 bb
       -0.13113566 0.24227683 -0.087850906 -0.005415014
