models/imagenet_gan_pretrain_128f_relu_lrelu_7l_3x3_256z/30_gen_params.jl_16.npy (npy, 589920 bytes, 1 tensors)

array f4 [128, 128, 3, 3]
0	0xbcb35976	-0.021893244
1	0xbbe05542	-0.006846101
2	0xbc735010	-0.014850631
3	0xbd719256	-0.058977447
4	0x3c563d5f	0.013076155
5	0x3ca9291d	0.020649487
6	0xbe007312	-0.12543896
7	0xbd2c4476	-0.042057477
8	0x3d7e6662	0.06210936
9	0x3d9aa6ca	0.07551344
10	0x3d9c81dc	0.07641956
11	0xbcd8bb1b	-0.026456406
12	0x3be53e4a	0.006995951
13	0x3c9a6d85	0.018851051
14	0xbd261bae	-0.04055374
15	0x3d2e644d	0.042576123
16	0x3e335631	0.17513348
17	0x3e0b11f6	0.1358107
18	0x3c3b49e2	0.011431189
19	0xbca64b9f	-0.02029973
20	0x3d2aba45	0.041681547
21	0xbe71f9b1	-0.23630406
22	0x3d0e7a45	0.034784574
23	0x3d624904	0.055245414
24	0x3d48a2a8	0.048983246
25	0x3c8fdb11	0.017560514
26	0x3de0397f	0.109484665
27	0x3d2a55f9	0.041585896
28	0xb9d8cdb4	-0.0004135199
29	0x3d8b2aac	0.067952484
30	0x3e382c84	0.17985731
31	0x3e2e27c8	0.17007363
32	0xbd9db4cf	-0.07700502
33	0x3e07b3a3	0.1325212
34	0x3db6f531	0.08933485
35	0xbc8ee3ca	-0.017442603
36	0xbd92a817	-0.07160967
37	0x3d14f3c3	0.03636528
38	0x3d0227c7	0.031776216
39	0xbc228d74	-0.00992142
40	0x3c00e19f	0.007866292
41	0xbc8afeb6	-0.016967159
42	0xbd7ccc94	-0.06171854
43	0xbbe84ebf	-0.0070894654
44	0xbcebd6cc	-0.028788947
45	0xbe03a31c	-0.1285519
46	0xbd522afd	-0.051310528
47	0xbd28b53f	-0.041188475
48	0x3d4eba7c	0.050470814
49	0x3d268a94	0.040659502
50	0xbd88a78a	-0.066725805
51	0x3dc96a66	0.09834747
52	0x3d07f5de	0.03319346
53	0x3d5d3094	0.054001406
54	0x3d84239f	0.06452107
55	0xbc494b88	-0.012286074
56	0xbd84b1ad	-0.064792015
57	0x3d486a65	0.04892959
58	0x3d5d4969	0.054025088
59	0x3d9425e9	0.07233793
60	0x3ddf033b	0.10889288
61	0x3e067f15	0.13134415
62	0xbbccab34	-0.006245995
63	0x3dbc0e3e	0.09182404
64	0x3ce836e8	0.028346494
65	0x3db1e2d3	0.086858414
66	0x3c4ef9be	0.012632785
67	0xbe0ef924	-0.13962227
68	0xbce083c4	-0.02740658
69	0xbd9eee1a	-0.07760258
70	0xbd20071e	-0.039069287
71	0xbe538f1b	-0.20660059
72	0x3e10f951	0.14157607
73	0x3dff29d9	0.12459154
74	0xbcf7d8b0	-0.030254692
75	0x3da4448c	0.08020887
76	0x3e32ab74	0.17448217
77	0x3b9b3a87	0.0047372016
78	0xbbedf730	-0.007262133
79	0x3cc9169a	0.02454691
80	0x3dc57579	0.09641547
81	0xbe8550ca	-0.260382
82	0x3d1bf791	0.038077895
83	0xbd6d2d8f	-0.057904776
84	0xbe9b3ad1	-0.3031831
85	0xbc540944	-0.012941662
86	0x3d1c926b	0.038225573
87	0xbe036dd9	-0.12834872
88	0xbde4d6c0	-0.11173773
89	0x3d48582e	0.04891222
90	0xbba98f8f	-0.005174584
91	0x3ca9045e	0.020631965
92	0xbc30c94d	-0.010790181
93	0x3ccb6d7f	0.024832485
94	0x3decba11	0.11558927
95	0x3d605a78	0.054773778
96	0x3dddfb41	0.108389385
97	0x3d52b232	0.05143947
98	0x3dc3e61b	0.095653735
99	0x3b64a0d6	0.0034885905
100	0xbd7a4958	-0.061105102
101	0x3d07040e	0.03296285
102	0xbe3cca87	-0.18436633
103	0x3d8770b6	0.06613295
104	0x3d2d5393	0.04231603
105	0x3c63daac	0.013907116
106	0xbce20efd	-0.027595038
107	0xbce9ef20	-0.028556406
108	0xbd4bfdc6	-0.049802564
109	0xbe05cfb3	-0.13067512
110	0xbd5f7432	-0.05455417
111	0xbdf894f5	-0.12137786
112	0x3d2e9582	0.04262305
113	0x3d13a32a	0.036044277
114	0xbcdb294b	-0.026753088
115	0xbd3903aa	-0.04516951
116	0xbd4862a0	-0.04892218
117	0xbe81174b	-0.25213084
118	0x3c71cb95	0.01475801
119	0x3de36054	0.111023575
120	0x3df1dea8	0.118100464
121	0x3d7b0b69	0.06129018
122	0xbd177fd8	-0.036987156
123	0xbb463cb4	-0.0030248584
124	0x3e193e9d	0.14965291
125	0x3de0b9d3	0.10972943
126	0xbe62fb3f	-0.22166155
127	0x3d41233f	0.047152754
128	0xbca2c06c	-0.019867145
129	0xbd018c8c	-0.031628177
130	0xbbe33234	-0.006933475
131	0x3daaa95c	0.08333084
132	0x3cc6b252	0.024254952
133	0x3da87448	0.08225304
134	0x3d646cb4	0.05576773
135	0x3befa434	0.0073132757
136	0xbe36d7b9	-0.17855729
137	0xbd26fbad	-0.04076736
138	0xbda83d65	-0.08214835
139	0x3b8428c0	0.004033178
140	0x3c905b3a	0.017621625
141	0xbc423d8c	-0.011855494
142	0xbe5e6a07	-0.21720134
143	0xbd5d5c2c	-0.05404298
144	0x3d46213e	0.048371546
145	0x3c19131c	0.009342935
146	0xbcdd8aa1	-0.027043642
147	0x3cb35c08	0.02189447
148	0x3d976ce6	0.073938176
149	0xbcac4ceb	-0.021032771
150	0x3dddb3f7	0.10825341
151	0x3d3cab96	0.046062075
152	0xbc56df68	-0.013114788
153	0x3e22c1e4	0.15894276
154	0x3d0ae8e0	0.033913493
155	0xbe339e2f	-0.17540811
156	0x3c5fb560	0.013654083
157	0x3d92f4c2	0.0717559
158	0x3df05c62	0.117363706
159	0x3a02bdb0	0.0004987372
160	0x3b991b68	0.0046724565
161	0xbd63a13f	-0.055573698
162	0x3c95b8e1	0.018276634
163	0x3dff702a	0.124725655
164	0xbc683269	-0.014172175
165	0xbce0c104	-0.027435787
166	0xbd12ff90	-0.035888255
167	0xbd87ea0a	-0.06636436
168	0xbd36daf0	-0.04464239
169	0x3d6d1685	0.057882804
170	0xbc57800a	-0.0131530855
171	0x3da10b2c	0.07863459
172	0xbd543c55	-0.05181535
173	0x3c206cbf	0.009791552
174	0x3dec79a8	0.115466416
175	0xbd33dfb0	-0.043914497
176	0xbc52d472	-0.012868034
177	0xbdd357be	-0.1031947
178	0x3d857813	0.06517043
179	0xbe1fa6ee	-0.15591022
180	0xbcbe00f1	-0.023193808
181	0x3d3d8132	0.04626579
182	0x3c3f3e08	0.011672504
183	0xbd94e484	-0.072701484
184	0xbd8046da	-0.06263514
185	0xbc6f3984	-0.014601115
186	0xbbab7beb	-0.005233278
187	0xbe026836	-0.12735066
188	0xbceef637	-0.029170139
189	0x3cb2798e	0.021786477
190	0x3d8455db	0.06461688
191	0xbaa53123	-0.0012603145
192	0x3dec4942	0.1153741
193	0x3cdaa355	0.02668921
194	0xbd70edf0	-0.058820665
195	0x3d96ae2a	0.07357438
196	0x3db0bb5f	0.08629488
197	0x3d78a000	0.060699463
198	0x3e80ed82	0.25181204
199	0xbc9553c1	-0.018228414
200	0x3dae2aa6	0.08504228
201	0x3e013d0d	0.12620945
202	0x3d217b29	0.039424095
203	0x3e14a26e	0.14515087
204	0x3ddbbd77	0.10729497
205	0x3a8d0c99	0.0010761201
206	0x3dff2ad5	0.124593414
207	0x3d7bd8d5	0.061486084
208	0x3d5e6166	0.054292105
209	0xbd1f6b17	-0.03892049
210	0x3d897a58	0.06712788
211	0x3d3a7ea6	0.045530938
212	0xbbc956ff	-0.006144404
213	0x3e0566d8	0.13027513
214	0x3e1b12fe	0.15143964
215	0x3d1e7c14	0.03869255
216	0xbc1ca1dd	-0.009560076
217	0x39b77f79	0.00034999455
218	0x3c9ee1f3	0.01939485
219	0xbcc529b1	-0.024067732
220	0xbdae5272	-0.08511819
221	0x3b1e89dd	0.002419106
222	0xbc9c912d	-0.019112194
223	0xbd9274ad	-0.071511604
224	0xbcbbbb89	-0.022916572
225	0xbc9d8530	-0.019228548
226	0xbc222d21	-0.009898455
227	0x3d6fc111	0.05853373
228	0x3c742c54	0.014903147
229	0x3ca1d132	0.019753072
230	0x3be684b6	0.0070348633
231	0xbdc804c9	-0.09766538
232	0x3c39c1c7	0.011337704
233	0xbc2edace	-0.010672284
234	0x3c01bab2	0.007918047
235	0x3d52a563	0.051427256
236	0x3cf01425	0.02930648
237	0xbe0a198a	-0.13486305
238	0xbdecf61d	-0.1157038
239	0xbca7aac1	-0.020467164
240	0x3c174d22	0.0092346985
241	0xbde63daa	-0.1124223
242	0x3bbf9e60	0.005847737
243	0x3dcd945a	0.100380614
244	0x3e2e4e4b	0.17022054
245	0xbd8dc579	-0.069224305
246	0x3dc8ac76	0.09798519
247	0x3e19c782	0.15017512
248	0x3d942eb9	0.07235474
249	0x3d0fe0a9	0.035126362
250	0x3de0498d	0.10951529
251	0x3d6cf897	0.05785426
252	0x3c732ba7	0.0148419505
253	0xbd1ea0cc	-0.038727567
254	0xbdaee111	-0.08539022
255	0x3d005059	0.031326625
